pure_noise_model/noise_extractor_srm_highres.pth (torch, 919198 bytes, 18 tensors)

encoder.pre_process.weight f4 [3, 1, 5, 5]
000000 00 00 00 00 00 00 00 00 00 00 00 00 00 00 00 00
       0.0 0.0 0.0 0.0
000010 00 00 00 00 00 00 00 00 00 00 80 be 00 00 00 3f
       0.0 0.0 -0.25 0.5
000020 00 00 80 be 00 00 00 00 00 00 00 00 00 00 00 3f
       -0.25 0.0 0.0 0.5
000030 00 00 80 bf 00 00 00 3f 00 00 00 00 00 00 00 00
       -1.0 0.5 0.0 0.0
000040 00 00 80 be 00 00 00 3f 00 00 80 be 00 00 00 00
       -0.25 0.5 -0.25 0.0
000050 00 00 00 00 00 00 00 00 00 00 00 00 00 00 00 00
       0.0 0.0 0.0 0.0
000060 00 00 00 00 ab aa aa bd ab aa 2a 3e ab aa 2a be
       0.0 -0.083333336 0.16666667 -0.16666667
000070 ab aa 2a 3e ab aa aa bd ab aa 2a 3e 00 00 00 bf
       0.16666667 -0.083333336 0.16666667 -0.5
000080 ab aa 2a 3f 00 00 00 bf ab aa 2a 3e ab aa 2a be
       0.6666667 -0.5 0.16666667 -0.16666667
000090 ab aa 2a 3f 00 00 80 bf ab aa 2a 3f ab aa 2a be
       0.6666667 -1.0 0.6666667 -0.16666667
0000a0 ab aa 2a 3e 00 00 00 bf ab aa 2a 3f 00 00 00 bf
       0.16666667 -0.5 0.6666667 -0.5
0000b0 ab aa 2a 3e ab aa aa bd ab aa 2a 3e ab aa 2a be
       0.16666667 -0.083333336 0.16666667 -0.16666667
0000c0 ab aa 2a 3e ab aa aa bd 00 00 00 00 00 00 00 00
       0.16666667 -0.083333336 0.0 0.0
0000d0 00 00 00 00 00 00 00 00 00 00 00 00 00 00 00 00
       0.0 0.0 0.0 0.0
0000e0 00 00 00 00 00 00 00 00 00 00 00 00 00 00 00 00
       0.0 0.0 0.0 0.0
0000f0 00 00 00 00 00 00 00 3f 00 00 80 bf 00 00 00 3f
       0.0 0.5 -1.0 0.5
000100 00 00 00 00 00 00 00 00 00 00 00 00 00 00 00 00
       0.0 0.0 0.0 0.0
000110 00 00 00 00 00 00 00 00 00 00 00 00 00 00 00 00
       0.0 0.0 0.0 0.0
000120 00 00 00 00 00 00 00 00 00 00 00 00
       0.0 0.0 0.0

encoder.net.0.weight f4 [32, 9, 3, 3]
000000 22 c8 46 3d ad a5 48 bd d9 07 88 3b 5e 44 bf 3d
       0.048530705 -0.048986126 0.004151326 0.09339212
000010 97 6c b4 bd 54 c6 bf bc 85 32 9b bd 9f 4a cc 3d
       -0.08809774 -0.02341 -0.07577995 0.0997517
000020 07 04 8f 3b ad 1e 05 bd 2c 84 0e 3d b2 40 68 3d
       0.004364494 -0.032499958 0.034794018 0.056702323
000030 50 20 93 bd 5b 15 b6 bd e0 85 be 3d 52 dd dd bd
       -0.071838975 -0.08890792 0.093028784 -0.10833229
000040 de 19 68 bd 0f 8d 9a bc 00 98 00 3c 91 af 5e 3c
       -0.056665294 -0.01886609 0.00784874 0.013591663
000050 25 98 a1 bd dd fa e0 3c f9 84 b9 3d 67 9f b6 bd
       -0.078903474 0.027463371 0.09058566 -0.08917122
000060 63 52 b9 bd 6a e4 88 bd 6f f4 e8 3c 20 8e 43 bd
       -0.09048917 -0.066841915 0.028436868 -0.047742963
000070 d6 c5 82 3d 31 de 9d bd cc 89 8f bd 6f 10 46 bd
       0.063853905 -0.07708395 -0.070087045 -0.048355516
000080 75 20 05 bd 68 03 de bd 12 cb c2 3d 92 36 14 bc
       -0.032501657 -0.108404934 0.09511389 -0.009046214
000090 40 43 b9 bd 6f 16 7a bc 9f 84 71 bd ab 6a d6 bc
       -0.0904603 -0.015264138 -0.058964368 -0.02617391
0000a0 06 63 3d bd e9 4b a8 3d 6f 87 fc bd a4 c9 1e bd
       -0.046237014 0.08217604 -0.123305194 -0.03876652
0000b0 ee 1f c0 bd 07 ce af 3d 8e 8d ce 3d e0 95 97 3d
       -0.0938109 0.085842185 0.10085593 0.07401633
0000c0 68 72 a3 bd 9e ac a4 bd f7 fe e2 bc 20 5a f7 bd
       -0.07980806 -0.080407366 -0.027709467 -0.12077737
0000d0 43 71 f5 3c f4 7c c4 bd 17 35 12 3c 4d 2a 72 bd
       0.029961234 -0.095941454 0.00892379 -0.059122372
0000e0 2f 9d 07 3d 99 f3 7a 3d 66 06 ef bc aa bc dd 3d
       0.033108886 0.06126747 -0.029177856 0.108270004
0000f0 d9 ec a5 bd 4d 6e 2b 3d 7f f0 30 bd 99 f7 50 bd
       -0.08101816 0.041853238 -0.043198105 -0.051017378
000100 07 73 d2 bc 54 9f 11 3d 0d 92 ec 3c 8d 18 e5 3d
       -0.025689615 0.035552338 0.028878236 0.11186323
000110 d7 06 e7 bc c7 fd 48 bc fc f0 c7 bd 71 26 8a bd
       -0.028201504 -0.0122675365 -0.09762761 -0.06745613
000120 aa f4 8f bd ea 63 cb 3d 0c 3f 6e 3d 8d 45 a3 3d
       -0.07029088 0.099311665 0.058165595 0.0797225
000130 aa 54 9f 3d 07 5a b1 3c fb 78 d4 bd ab bd 4c bd
       0.0777982 0.021649374 -0.10374638 -0.04998557
000140 e1 18 70 3d af cc cb 3b 41 f4 0a bc 9f f9 af bd
       0.058617476 0.0062194685 -0.008481086 -0.08592533
000150 14 2b 16 bd fe 3d 9a 3d 4d 38 83 3d 88 3f d4 bd
       -0.036662176 0.07531355 0.06407223 -0.1036368
000160 90 f3 1d bd 77 a6 3f bd 96 88 22 bd f4 b8 5a 3d
       -0.038562357 -0.046789613 -0.03968104 0.05339904
000170 c7 a7 f2 bc a7 8b 42 3d 39 bf df bc c8 51 81 3d
       -0.029621018 0.047496464 -0.027312862 0.06314427
000180 b8 82 94 bd 45 ed b8 bd 8b 39 8d bd 15 fc 88 3d
       -0.07251495 -0.090296306 -0.06895741 0.06688706
000190 50 84 d8 bd 0e b4 29 bd 65 3f 6d bb 28 a7 e2 bd
       -0.105721116 -0.04143148 -0.0036201116 -0.11067039
0001a0 d6 3c b4 3d 7d 25 92 3a b1 26 69 bc e9 1c b7 bd
       0.08800666 0.0011150088 -0.014230416 -0.08941061
0001b0 a8 9f 2b 3d 9f 3e 89 3d 3a 8f af bd 36 a3 3c 3d
       0.041900307 0.06701397 -0.0857224 0.046054088
0001c0 94 9b 41 3d 6c d4 a6 bd 1f 3d 60 3d 7c 29 8e 3d
       0.04726751 -0.08145985 0.05474579 0.06941506
0001d0 9c 15 3c bd 91 69 39 bd 0c 90 7f 3d ed 3a 68 3d
       -0.045919046 -0.04526669 0.062393233 0.05669682
0001e0 45 e4 cc 3c 19 8b d3 3d a2 9d c3 3d ef 2d 3e 3d
       0.025011191 0.10329265 0.095515504 0.046430524
0001f0 52 de 8f 3d 80 9b 3b bd 6d a6 9e bd 2b b5 f2 bd
       0.07024826 -0.045802593 -0.07746587 -0.11850961
000200 78 6d 87 3d ee e8 04 3d a8 20 28 be b0 62 66 bd
       0.066126764 0.0324487 -0.16418707 -0.05624646
000210 9f 17 0a 3d e0 8b 1c bc 7c ec 8e 3d ce 80 47 bd
       0.033713933 -0.009554833 0.069786996 -0.048706822
000220 44 74 7f 3d cb 9b 7f 3d 21 3c 2d bd 9a 27 9b bc
       0.06236674 0.062404435 -0.04229367 -0.018939782
000230 d8 b6 9a 3d 74 4d b4 bc 4d cd db 3d 25 64 64 3d
       0.07554406 -0.022009589 0.107325174 0.055759568
000240 d9 25 60 3d 62 b2 9f 3d 21 cf 08 bd af 62 55 3d
       0.054723594 0.07797696 -0.03340066 0.052096065
000250 38 dc 43 bc eb 4d 91 bd fe 25 0a bd 75 3d 5d 3d
       -0.01195436 -0.0709494 -0.03372764 0.054013688
000260 7f f0 47 3d a4 7f 88 bd d5 87 ae bd 23 b4 ef ba
       0.04881334 -0.066649705 -0.08522002 -0.0018287938
000270 11 a4 b6 3d 7a 1e aa bd 9e b4 82 bc d8 2e dd bc
       0.08918012 -0.08306594 -0.015955266 -0.026999876
000280 f0 8d 07 be b1 6e 21 bc 48 55 89 3d d2 c6 7c 3c
       -0.13237739 -0.009853051 0.06705719 0.015428262
000290 60 27 aa bd 90 fc 97 bd 2b 08 a9 bd cb f5 81 bd
       -0.083082914 -0.07421219 -0.08253511 -0.063457094
0002a0 42 43 88 bb 20 eb 0e bd dd ae 52 3d ed 50 40 bd
       -0.0041584084 -0.0348922 0.051436294 -0.046952177
0002b0 7f c0 43 3d 58 ec 82 3a 7e 23 6b 3d 11 88 9b bd
       0.047791 0.0009988649 0.057406895 -0.07594312
0002c0 84 68 aa 3d f0 43 93 bd a7 05 a0 bd 72 4e 2a bd
       0.08320716 -0.071906924 -0.07813578 -0.041578718
0002d0 1b 3e 17 3d 22 35 1d bd cc cf bd 3d 5e 8b 9a bd
       0.036924463 -0.03838075 0.0926815 -0.075461134
0002e0 c6 78 ba 3d 01 1e 0f bc 29 3a d9 3d 2e 8d ab 3d
       0.09105067 -0.008735181 0.10606796 0.08376537
0002f0 21 0c ea 3d c9 f7 50 bd e7 d1 95 3d d0 47 79 bd
       0.11428095 -0.051017556 0.07315426 -0.0608595
000300 cd 9b 07 3d d7 a5 ab 3d 50 46 71 bc bf 9b c4 3d
       0.033107568 0.08381241 -0.014726236 0.09600019
000310 f3 13 53 3d ad 44 8e bd 82 99 18 3d 30 7f 8c bd
       0.051532697 -0.069466926 0.03725577 -0.068601966
000320 e5 cd 98 bc a1 ba 48 3c 33 7a 1f bd 2f 4f 2c 3c
       -0.018652866 0.012251527 -0.038934898 0.010516926
000330 ea 17 bd 3d 95 04 9e 3d 44 e4 11 bb 47 65 06 bd
       0.09233077 0.07715718 -0.00222613 -0.03281143
000340 7c 09 82 b9 39 a3 d3 3d db 5a f0 3d e4 03 6d bd
       -0.000248026 0.103338666 0.11736079 -0.05786504
000350 03 05 9c bc 95 6e e6 3d 66 f2 fa 3d 95 db 16 3d
       -0.019045359 0.112515606 0.12253265 0.036830503
000360 29 29 34 bd 4f 18 51 3d fb 02 aa 3d 8c 3d f3 3b
       -0.043984566 0.051048573 0.0830135 0.0074231084
000370 73 9a df bc 56 07 71 bc 79 6b 98 bd 98 b8 c3 3d
       -0.027295327 -0.014711222 -0.07442374 0.09556693
000380 c7 22 ac bd 86 8a 04 3d 1c c3 77 3d 39 11 87 bb
       -0.08405071 0.03235867 0.060488805 -0.004121926
000390 46 b8 94 bd 9d bd cc 3d b7 d5 c9 3c e0 5f 9f bd
       -0.0726171 0.09997103 0.02463804 -0.077819586
0003a0 f8 90 bd bc cd c5 95 3d 07 60 53 3d 2c f4 90 3c
       -0.023140416 0.07313118 0.05160525 0.017694555
0003b0 54 22 5b bd e5 09 24 3c 9f bd 05 bd 21 a0 d1 3d
       -0.053499535 0.010012125 -0.03265154 0.1023562
0003c0 4f be 94 3d 5c cb 0f bc 09 2f 08 3e e1 5a 2f bc
       0.07262861 -0.008776512 0.13299192 -0.01070282
0003d0 2b 77 7f bd fa e7 46 3d 56 be c1 bd 98 e2 83 bd
       -0.062369507 0.048561074 -0.09460132 -0.06439704
0003e0 cc e5 12 3d 33 f6 4a 3d 20 cc 81 bb 0c 37 a5 bd
       0.035863683 0.0495512 -0.003961101 -0.0806714
0003f0 52 1e 6d 3d da 0b 7c bb 98 39 8e bd 47 4a 02 be
       0.057890244 -0.0038459213 -0.06944579 -0.12723647

encoder.net.0.bias f4 [32]
000000 0b 5f 97 bb 70 85 b1 b8 3c b6 11 bc 6a b4 b3 3b
       -0.0046194843 -8.4648724e-05 -0.008893546 0.0054841535
000010 14 c0 1c ba 5b 15 07 bc c2 e4 34 ba 3c 66 0c 39
       -0.00059795496 -0.008244838 -0.00069005426 0.00013389526
000020 ea 59 1e 3a 55 6b 0b ba 99 e4 1e 39 71 8f 59 ba
       0.000604062 -0.0005318423 0.00015153213 -0.00082992675
000030 5c 60 af b9 dc d8 cf 3b e1 1a 13 3a b5 cd 9f ba
       -0.00033450394 0.0063429903 0.000561161 -0.0012192043
000040 53 29 dd b9 a2 0e 8d 3b da d4 92 bb 6d 48 93 ba
       -0.00042183194 0.004304723 -0.0044809403 -0.0011236795
000050 be 5f b5 3b b6 b8 9f ba 5a de 28 ba 01 16 51 3b
       0.005535095 -0.0012185785 -0.00064418244 0.0031903984
000060 36 65 85 b9 b8 7e 30 3b 9e 66 80 3b 60 48 43 ba
       -0.00025443145 0.0026931 0.003918483 -0.00074494444
000070 78 8e a1 3b 9c 77 04 3c 2e f3 14 3b 53 75 d9 38
       0.0049303137 0.008085158 0.0022727954 0.0001036922

encoder.net.1.weight f4 [32]
000000 e7 b7 70 3f 2a 05 7d 3f d5 05 76 3f f1 f0 70 3f
       0.9403061 0.98836005 0.9610265 0.9411765
000010 0e 90 82 3f 49 e7 7a 3f eb 69 7c 3f 3a 3e 78 3f
       1.0200212 0.98009163 0.9859912 0.9696995
000020 8e 69 6c 3f 1c 80 7e 3f c0 6c 84 3f 79 ac 79 3f
       0.92348564 0.9941423 1.0345688 0.975288
000030 3e bf 7b 3f 03 a3 70 3f ba 83 6f 3f e8 c0 77 3f
       0.9833869 0.93998736 0.93560374 0.96778727
000040 3e cd 6d 3f a3 c1 7a 3f 99 ba 80 3f fb 60 74 3f
       0.928913 0.97951716 1.0056945 0.9546048
000050 b0 c7 7b 3f 46 03 79 3f aa 1b 76 3f 11 ca 81 3f
       0.98351574 0.9727062 0.9613596 1.0139791
000060 36 a2 7b 3f 68 45 79 3f 5b 88 72 3f 1b e7 74 3f
       0.9829439 0.9737153 0.9473931 0.9566514
000070 01 2e 80 3f 1e a2 76 3f e2 6a 7f 3f 53 97 79 3f
       1.0014039 0.9634112 0.99772465 0.9749653

encoder.net.1.bias f4 [32]
000000 7e 25 1c 3b f9 d4 2e ba 39 0d 91 b8 01 77 67 3c
       0.0023826058 -0.00066693086 -6.916602e-05 0.014127494
000010 1b c4 0b bc 2a 9a 7d 3c 22 4b 53 bc 97 de df bc
       -0.008530642 0.01547865 -0.012896331 -0.027327819
000020 79 69 2d bc 5f 67 62 bb a7 94 b9 bb fe 57 7a 3c
       -0.010584229 -0.0034546477 -0.0056634727 0.015279768
000030 76 51 e2 bc e9 4c f6 3a e6 d5 d1 ba e4 bb 02 bb
       -0.027626734 0.0018791232 -0.0016009181 -0.0019948417
000040 46 a3 98 bc f9 20 20 bb ad 65 2d 3c b9 42 a4 3b
       -0.018632542 -0.0024433716 0.010583323 0.005012837
000050 4c dc 06 3c f2 b7 bb 3c 8e 7b 3d bd c8 61 ef 3a
       0.008231234 0.02291486 -0.04626041 0.0018263394
000060 f2 28 dc bb b4 48 56 bc 30 b8 02 3b 51 f4 49 3c
       -0.0067187482 -0.013078857 0.001994621 0.012326316
000070 fd 6e 83 bc 0d 09 1f 3c 5f 02 02 3c 6a b2 dc 3c
       -0.016044134 0.009706748 0.007935136 0.026940543

encoder.net.3.weight f4 [64, 32, 3, 3]
000000 4e b4 57 bc 47 e1 0a 3c 02 9f 8d bd 43 d9 23 bd
       -0.013165547 0.008476562 -0.06915094 -0.04000212
000010 f3 4b 06 3d 7d 6c 3d bd 25 56 31 3d e0 01 87 3d
       0.032787275 -0.04624604 0.043295044 0.065921545
000020 4d 77 0d bc 2f 61 50 bc 66 f8 d6 3c f8 fd 53 3c
       -0.008634401 -0.012718483 0.026241492 0.012938969
000030 d5 53 a9 3c a8 c0 b0 ba ea 6c 4a 3d d2 d8 27 bc
       0.020669857 -0.001348515 0.049420275 -0.010244565
000040 c4 29 1f bb 42 68 03 bd ed e6 20 3d 05 67 db bc
       -0.002428637 -0.03208185 0.039282728 -0.026782522
000050 d8 b5 e8 3c ae 0c 07 bd 1e b4 2c 3d f6 3a d8 bc
       0.028407022 -0.032971077 0.04216396 -0.026395302
000060 24 fa 1e 3d c8 13 bb 3c ca 91 0b 3d 04 54 7f bc
       0.03881277 0.02283658 0.034074582 -0.015583996
000070 c0 21 34 bd 79 5d 74 3c 7d 4d c2 3c 9d 3a 4a 3d
       -0.0439775 0.014914864 0.02371859 0.049372304
000080 19 30 3c bc f1 6c e0 3c b7 3c 85 3c 18 21 01 3d
       -0.011486077 0.027395697 0.016264303 0.0315257
000090 d8 0e a4 bc 27 a8 9e 3d e7 a6 1f bc fa e6 64 bb
       -0.02002661 0.07746916 -0.009744382 -0.0034927712
0000a0 fc 51 83 3d d0 27 4b bd de 5d 23 bd 35 e4 85 3d
       0.06412122 -0.049598515 -0.03988444 0.06537668
0000b0 c5 5f 9a bc 2c 75 dc 3c b7 b7 17 bd c7 af 1b bd
       -0.018844495 0.02691134 -0.03704044 -0.03800943
0000c0 a4 4c ca bc 90 f9 0e 3d 44 a3 99 ba 0b 09 64 3c
       -0.024694748 0.03490597 -0.001172163 0.013918172
0000d0 59 8d 94 3c 06 49 76 bd 57 8d b9 3c 5e 69 ad 3c
       0.018133806 -0.060128234 0.022650404 0.021168407
0000e0 03 82 8c bc ba 8b e6 3c b5 d4 e1 bb 00 e6 be bc
       -0.017151838 0.028142799 -0.0068918117 -0.023303032
0000f0 3c ac 82 3b 6d 7d 1e bd cc 27 a2 3a b4 95 8d 3c
       0.003987817 -0.038693834 0.001237148 0.017283298
000100 b6 98 3f 3d ba 27 26 3c 7f bf 4c 3d c9 18 2b 3d
       0.046776496 0.0101413075 0.049987312 0.041771684
000110 e9 7f c1 3c 5a 15 4f bd 87 0a f0 3c 48 24 10 3c
       0.023620563 -0.05055747 0.029301895 0.008797713
000120 b8 bb 2e 3d b1 f6 20 bc 2a 92 64 3c 12 4e 3f 3c
       0.04265949 -0.009824441 0.013950864 0.011676328
000130 00 67 1d bd 24 e1 a2 bc d6 40 04 3d cb da 87 3d
       -0.038428307 -0.019882746 0.032288395 0.06633528
000140 0f 2d 47 bc 3d e2 7a bd a1 32 97 3d 23 c2 99 3c
       -0.012156739 -0.061250914 0.073827036 0.01876933
000150 06 2b b0 3c 93 a8 1c 3d df e6 b7 3c f9 75 54 bd
       0.02150489 0.038246702 0.022448955 -0.05187032
000160 6c 15 87 3c 8f 4d 22 3b 90 1a 26 3d 89 4e 5d bd
       0.016489707 0.0024765467 0.040552676 -0.054029975
000170 0d d4 91 3d 4c 99 7e 3c 07 1a 16 bd 79 31 06 3d
       0.071205236 0.0155394785 -0.036645915 0.032762025
000180 f2 80 5b 3c bc 96 12 3d fd 97 96 3d 4f 24 20 3d
       0.013397442 0.035788283 0.07353208 0.039097127
000190 47 40 37 3c 08 2e 2b bd 63 dc 98 3c 5c f4 c3 3c
       0.0111847585 -0.041791946 0.018659776 0.02392023
0001a0 b5 bd 62 bd 73 ee 0e 3c bc 7e 04 bd a9 48 4e 3c
       -0.0553567 0.008723843 -0.032347426 0.012590566
0001b0 87 31 dd 3c 18 36 24 3c 0e f5 8a 3c 41 d6 bd bc
       0.027001156 0.010022663 0.016962554 -0.023173453
0001c0 29 fb 4e 3c 06 ca 2b bc d3 60 83 bc 67 68 a1 3c
       0.012633123 -0.010485178 -0.01603738 0.019703103
0001d0 22 a1 16 bd d3 07 93 bb 0d 12 df 3c 50 09 97 bc
       -0.036774762 -0.0044870167 0.027230287 -0.018437058
0001e0 ea f9 b6 3b 80 22 fc 3c 5b f0 e1 3c 6c 12 f9 3c
       0.0055839913 0.03077817 0.02758043 0.030404292
0001f0 09 ad 0a 3d b6 d2 a1 bd 01 60 0a 3c 8f 1a 9c bc
       0.033856425 -0.07901518 0.008445741 -0.019055633
000200 55 a6 05 3d 5d ee 25 3d 91 a3 06 3d 05 b2 e1 3c
       0.03262933 0.040510524 0.032870833 0.027550707
000210 37 a6 ec 3c 67 5e f7 bc 30 9a b4 3b 43 f2 80 bd
       0.028887851 -0.030196382 0.0055115446 -0.06296208
000220 70 b0 1b 3d b6 98 00 3d ba 38 1c bd 6d e5 13 bd
       0.03801006 0.031395636 -0.038140036 -0.03610747
000230 82 43 80 3d 18 fc 31 3d b8 1d 11 3d cc c0 a3 3c
       0.06262876 0.043453306 0.035428733 0.019989394
000240 e3 ec 3c bd 3e 52 0f bd a8 b8 2c bc fb a7 27 bd
       -0.04612435 -0.03499054 -0.010542072 -0.040931683
000250 c9 fb a5 bc 4c 20 a1 3c 7f 76 0e 3d a3 52 30 3d
       -0.020261662 0.01966872 0.034780975 0.04304756
000260 5c d7 80 bc 7b 84 1e 3d 82 7c 42 3c 78 25 f2 bc
       -0.015727691 0.038700562 0.011870505 -0.029558882
000270 ce 32 ee 3c b7 52 10 bd 84 96 d8 bc b7 a4 35 3d
       0.02907696 -0.035235133 -0.026438959 0.044346537
000280 18 a4 58 3c de 80 fc bc b4 60 59 3a 17 00 36 3c
       0.013222717 -0.030823167 0.0008292303 0.01110842
000290 c2 23 40 3c 6b 11 9f 3c ab f1 5c 3d be de 63 bc
       0.011727275 0.019417485 0.05394141 -0.013908086
0002a0 2e 31 0f bd 4e 52 85 3c 8c 6a a2 3c 70 5a 25 bb
       -0.03495901 0.016274597 0.019826196 -0.0025230907
0002b0 5c ed 1a 3d d0 ca 98 bc 15 6e 19 bd b0 af 3e 3d
       0.03782402 -0.018651396 -0.037458498 0.046554267
0002c0 dc 7b ef bc 3a 9d 88 3c 56 dd a0 bc 9f 60 ce bb
       -0.029233865 0.016676534 -0.019636791 -0.006298139
0002d0 78 4c d9 3b b2 86 3c 3d 4f 45 da 3b 5b c9 e3 3c
       0.0066314302 0.046026893 0.0066610943 0.027805975
0002e0 73 a8 39 3d 06 cb cd 3c ae f0 cd bc a8 87 81 3c
       0.04532666 0.025121223 -0.02513918 0.015811756
0002f0 78 33 41 3d 93 df 23 3d 6d 33 3c bc cb 67 89 bd
       0.047168225 0.04000814 -0.01148687 -0.0670925
000300 6f b3 48 bd 2a 99 56 3d b6 d7 55 bc 48 78 10 bd
       -0.048999246 0.052392162 -0.013051918 -0.03527096
000310 9a 36 0e 3d 1d 08 86 bd df c3 cc bc da 69 06 bb
       0.03472004 -0.06544516 -0.024995742 -0.002050987
000320 8a 6d 82 bd 74 f2 11 bd e0 8f aa 3b 50 6f 4e bd
       -0.06368549 -0.035631612 0.0052051395 -0.050399125
000330 79 f7 5d bb 26 22 8d 3c ee 25 06 3d 9f 7b 50 bd
       -0.003386943 0.017228197 0.032751016 -0.050899144
000340 99 be 29 3d 93 2b 4b bc f8 d6 37 3d 1d ce fe 3a
       0.041441534 -0.012400526 0.044882745 0.0019440089
000350 0c 2f 82 bc 4a 12 cf bc f4 f0 c6 bc 4b d8 ff 3c
       -0.015891574 -0.025277276 -0.024284817 0.031231066
000360 a2 26 8b 3c 66 e7 2c bc 37 e2 03 bd 39 63 62 bc
       0.016986195 -0.010553217 -0.032198157 -0.013817602
000370 36 f3 4c 3c 90 ce 33 3c c2 92 aa 3b 6f a3 a5 3c
       0.012509158 0.010974541 0.005205483 0.020219533
000380 79 e7 66 3d 5d c3 76 bd da d3 68 3b 72 40 cd bc
       0.056373093 -0.060244907 0.0035526664 -0.025055144
000390 a7 5a cf bc 36 66 57 3c e6 22 92 bc 04 c6 8e bc
       -0.025311781 0.013146928 -0.017838906 -0.017428406
0003a0 40 56 37 bd 0c ee 7c 3d 83 7d 21 3d 8e 50 49 bd
       -0.04475999 0.061750457 0.039426338 -0.04914909
0003b0 7f e4 26 bc d6 78 17 bb bc 25 d2 bc 72 b1 9d bc
       -0.010186314 -0.0023112795 -0.025652759 -0.019249652
0003c0 07 61 2e bc ef d4 9f 3b c5 2e f7 bc bc ca ca 3b
       -0.01064325 0.0048776786 -0.030173669 0.0061887186
0003d0 0a 81 20 3d 59 cb cf 3c 78 2e 12 3d 55 f1 08 3d
       0.03918556 0.025365518 0.035688847 0.033433277
0003e0 11 4d 81 bc 4b 68 a1 bb 01 4c 2a 3d db 4d 1d bd
       -0.015783818 -0.004925763 0.04157639 -0.038404327
0003f0 07 ce ca 3c 6c c8 8e 3c fc bb 99 3d 18 f4 c8 3c
       0.024756445 0.017429553 0.07506558 0.024530455

encoder.net.3.bias f4 [64]
000000 8b e2 0b bc 54 ee f0 bb c0 48 14 3b 4c d0 8b ba
       -0.008537899 -0.0073526297 0.002262637 -0.0010666936
000010 10 74 d9 39 46 5b 31 3a 45 0e 29 bc a4 d9 3b b8
       0.0004147594 0.0006765615 -0.0103183435 -4.4786968e-05
000020 e4 30 10 bb a4 04 93 3b 30 f3 de 3b 55 e7 5b 3b
       -0.0022001797 0.004486637 0.0068038926 0.0033554633
000030 87 58 a2 bb 0e cd 9e 3b e8 12 08 bc 64 14 e1 3a
       -0.004954401 0.004846222 -0.008305289 0.0017172215
000040 7f 1c 13 bb 37 2f 48 ba 2a 04 c6 ba e4 4e 44 3b
       -0.0022447405 -0.000763643 -0.0015107442 0.002995425
000050 b2 4b 98 3b 06 3b 48 3a f9 02 25 3b 3b ca 59 3b
       0.0046476955 0.00076381897 0.0025178774 0.003323211
000060 0d 9b 20 3b de 0b c6 b9 12 b9 da 3a 85 a4 ff ba
       0.002450648 -0.00037774345 0.0016687235 -0.0019503987
000070 d0 f1 b6 ba e7 d3 02 bd 62 2b e9 3b 6b d3 1b 3b
       -0.0013957564 -0.031940367 0.0071157673 0.0023777138
000080 ef 12 ff 3c ab 98 15 bb ad 86 5a ba 4a 43 ef b7
       0.031136958 -0.0022826593 -0.00083361083 -2.8522354e-05
000090 90 cf 92 3b 75 d6 f7 b9 e5 e8 11 ba ca 61 a3 bb
       0.00448031 -0.00047271294 -0.0005566015 -0.0049860226
0000a0 59 6c 0a ba 6f 03 d4 3a 87 09 91 ba 25 69 a3 3b
       -0.0005280427 0.001617534 -0.0011065461 0.0049868994
0000b0 5d 8f 77 3a d6 15 3c 38 75 ae b9 3a ed 3d 64 bb
       0.0009443665 4.484303e-05 0.0014166372 -0.003482695
0000c0 9f ec 33 bb 2e 93 c6 bb ab f3 59 3b 5a 20 9c ba
       -0.002745427 -0.0060600257 0.003325681 -0.0011911497
0000d0 48 93 29 3b 87 4d 8e bb 00 87 3b bb ea 6d 3a 3b
       0.002587514 -0.004342738 -0.0028614402 0.0028446862
0000e0 b4 21 0d bc 05 e1 f0 ba df 10 25 bb 7e 31 bb 3a
       -0.0086139925 -0.0018377608 -0.0025187058 0.0014281718
0000f0 3b fe 93 ba d7 1b 37 ba 67 eb 77 ba 90 81 12 3b
       -0.0011290977 -0.00069850445 -0.000945738 0.0022355057

encoder.net.4.weight f4 [64]
000000 db 99 77 3f a6 48 72 3f 8f cb 71 3f df d1 6f 3f
       0.9671914 0.946421 0.9445123 0.9367961
000010 89 14 79 3f 3e c0 73 3f 1d ab 72 3f 7c 4c 85 3f
       0.9729696 0.95215213 0.9479235 1.0413966
000020 13 14 84 3f ca 07 78 3f 4e 0f 81 3f d7 f4 70 3f
       1.0318626 0.96886885 1.0082796 0.94123596
000030 ca 1c 7a 3f 34 d7 74 3f a3 b6 76 3f 76 8c 7a 3f
       0.9770018 0.95640874 0.9637243 0.97870576
000040 54 2c 78 3f e4 1a 74 3f 73 eb 75 3f bd e6 7b 3f
       0.9694264 0.9535353 0.9606239 0.98398954
000050 47 88 75 3f 38 3e 70 3f 76 c1 74 3f 27 66 7b 3f
       0.9591107 0.9384494 0.956077 0.9820275
000060 6d a3 75 3f 06 6b 76 3f aa 08 74 3f 4d a8 75 3f
       0.9595249 0.96257055 0.9532572 0.9595993
000070 92 0b 72 3f d7 37 79 3f 8c b2 7a 3f 41 8e 70 3f
       0.94548905 0.9735083 0.9792869 0.9396706
000080 39 02 7b 3f bb 2f 71 3f 2c 4a 85 3f 02 db 70 3f
       0.98050267 0.94213456 1.041326 0.9408418
000090 c1 fc 74 3f b5 08 7b 3f 50 19 7a 3f 31 76 6f 3f
       0.9569817 0.9806016 0.97694874 0.9353972
0000a0 dd 58 77 3f e1 7c 6b 3f 33 8d 72 3f 7c b5 7b 3f
       0.9661997 0.91987425 0.947467 0.983238
0000b0 be fb 73 3f f8 78 75 3f 5b 67 78 3f 2a 10 7e 3f
       0.95306003 0.9588771 0.9703271 0.99243414
0000c0 fa 0b 70 3f a7 8b 77 3f 39 6a 7c 3f 6a 5b 72 3f
       0.93768275 0.9669747 0.9859958 0.94670737
0000d0 ff 36 7a 3f 36 02 77 3f ee fb 7a 3f 52 68 87 3f
       0.9774017 0.9648775 0.98040664 1.0578711
0000e0 68 d9 76 3f 9e 3d 73 3f c3 e9 7b 3f af 60 70 3f
       0.96425486 0.95015895 0.9840357 0.9389753
0000f0 04 79 72 3f cd d6 74 3f e0 94 71 3f 38 25 7f 3f
       0.94715905 0.9564026 0.9436779 0.99666166

encoder.net.4.bias f4 [64]
000000 c9 f4 98 bc 7a 3b 2b 3c 87 a2 f1 ba b5 3e 93 bb
       -0.01867141 0.010451192 -0.0018435278 -0.0044935592
000010 3e e0 07 3d d7 0e 27 bc a5 d6 ed 3b 63 f9 a7 3b
       0.03317284 -0.010196409 0.0072582536 0.0051261648
000020 d7 9f b2 3c 0e 88 e2 3c eb 45 82 bc fb d4 4d bb
       0.021804733 0.027652767 -0.01590248 -0.0031407464
000030 79 96 47 3c 5f 77 63 3c e5 ec 84 3c af ba 1a 3d
       0.012181872 0.013883441 0.016226241 0.03777569
000040 7c 4d 80 3c 16 5f 9d bc 66 21 bf 3c 1e 7b 84 ba
       0.015661947 -0.01921038 0.023331355 -0.0010107493
000050 a5 88 37 3b eb d4 01 bd ce d2 87 bc 58 9b 8b 3c
       0.002800503 -0.031697195 -0.016580012 0.017041847
000060 0e 63 f5 3c 53 13 3b 3d d3 2f 68 3c e0 eb 07 3a
       0.02995446 0.045672726 0.014171558 0.00051849894
000070 9d 60 48 3b ea 35 25 3d 13 6a 4b bd 83 cb 19 bc
       0.0030575164 0.04033462 -0.049661707 -0.0093869
000080 b9 23 ca bc 48 ea 33 3c 19 63 32 bd 5f c8 6c bc
       -0.024675237 0.01098115 -0.04355154 -0.014452069
000090 b9 74 50 3c 8d 20 6e 3a 23 da 17 bd 96 17 e7 3b
       0.012723141 0.000908383 -0.037073266 0.007052372
0000a0 d0 cd 06 3c 98 76 21 bc df 7a 8e 3c f5 86 a5 bc
       0.00822778 -0.009854935 0.017392574 -0.020205954
0000b0 c3 48 01 3b b4 ea 3d bc c4 65 2d bb 21 85 af 3c
       0.0019727207 -0.011591602 -0.0026458362 0.021425785
0000c0 df b5 33 3c 0c 00 11 3d 16 f6 c3 bc 3d 96 1a bb
       0.010968654 0.035400435 -0.023921054 -0.0023588084
0000d0 89 f9 3a bd 3e 27 73 3c 4f 17 a1 3c 8c 3e 8a bd
       -0.04564813 0.014840899 0.019664435 -0.06750211
0000e0 8f 9d 9a bc ba 64 a6 bc 9f 5b 28 bc d8 11 c5 bc
       -0.018873958 -0.020311702 -0.01027575 -0.02405636
0000f0 3a 6c 87 3c cb b8 97 bc 7b b1 74 bb bd b1 a9 bb
       0.016531099 -0.018520733 -0.0037337232 -0.0051786588

encoder.net.6.weight f4 [128, 64, 3, 3]
000000 5b 05 8a bc 4f 48 0e bb 0e 1f 74 3c 66 8e f0 bb
       -0.016848257 -0.002171058 0.014899982 -0.007341194
000010 04 67 22 bb cc 53 f0 bc c8 76 03 bb 12 78 0c 3d
       -0.002478064 -0.029336832 -0.0020059813 0.034294195
000020 29 1e 04 bc 2f a3 a5 bc 0a ae c6 bc b5 dc cb 3c
       -0.008063831 -0.020219414 -0.02425291 0.024885515
000030 f5 36 ad 3c d6 83 b0 bb 2c c4 f1 bc f5 57 07 bd
       0.02114437 -0.00538681 -0.029512487 -0.033042867
000040 9d 50 41 3c 4d 73 f5 3c b6 ed 91 bc 8e ce d6 3c
       0.011799005 0.029962206 -0.017813545 0.02622154
000050 77 a5 d5 ba 45 d9 b1 3b a4 34 b6 3c 4b 3e 38 ba
       -0.0016299923 0.005427512 0.022241898 -0.00070283253
000060 c6 94 45 bc d4 a2 08 3c 6d 67 dd 3c 4c ea d8 3c
       -0.012059396 0.0083396025 0.027026856 0.026478909
000070 7b 7c a2 b9 c4 e6 a7 bc ea 45 50 bc 02 aa 95 3b
       -0.00030991793 -0.02049578 -0.012711981 0.0045673857
000080 32 85 da 3c 9e f8 c4 3c 69 04 58 3c 5f 80 11 bd
       0.02667484 0.024044331 0.013184645 -0.035522815
000090 b3 16 b6 bc 42 f3 18 bd 3c 10 21 3c 46 cf 9e bc
       -0.02222762 -0.037341364 0.009830531 -0.019385945
0000a0 20 db ca 3c 7d 5c 02 3d 48 9f b7 bc 33 8f 03 bd
       0.02476269 0.031826485 -0.022414818 -0.032118987
0000b0 e0 b6 87 ba 28 51 9e bc f8 71 47 3c d5 d3 0b bd
       -0.0010354184 -0.019325808 0.012173168 -0.034137566
0000c0 45 66 0b 3c df 45 56 bc 33 01 cc bb f0 12 2d bd
       0.00850827 -0.013078182 -0.006225729 -0.04225439
0000d0 02 9f c6 3c 74 9e 2f bc b0 9e 02 bd a1 21 44 3d
       0.024245743 -0.0107189305 -0.031889617 0.047883634
0000e0 32 b4 16 bd 79 81 ca 3c e3 b3 0c 3d 94 50 18 bc
       -0.03679294 0.02471994 0.03435124 -0.009296555
0000f0 c4 4c 28 bd e7 32 11 3d df 1a b0 3c 7a 47 3b ba
       -0.041088834 0.035448935 0.021497188 -0.0007144135
000100 64 b3 aa bc f5 fe a2 ba d5 be e0 bc 59 1c 38 3c
       -0.020837493 -0.0012435602 -0.027434746 0.011237227
000110 f5 a5 52 bc fe a7 92 ba 8b b3 d5 3c 4b e3 e9 3b
       -0.01285695 -0.0011188982 0.02608659 0.007137691
000120 c7 6f 41 3c ff 82 b3 3c dd ef cd 3c 17 99 e1 bc
       0.011806435 0.02191305 0.02513879 -0.02753882
000130 a0 c2 06 bd d1 a0 d3 3c 28 a6 b0 bb b8 af d2 bc
       -0.032900453 0.02583352 -0.005390901 -0.025718555
000140 46 e1 d1 bb ee 79 01 3d 35 bf 82 3c 45 b2 ec 39
       -0.0064050285 0.03161042 0.015960315 0.0004514625
000150 07 45 08 bd 0e ab f9 ba a6 cb 41 3d 6e ba 06 bd
       -0.033268955 -0.0019048171 0.047313355 -0.032892637
000160 ed 3b b8 3b fa 99 6d 3b de 54 86 bc 80 52 9c bc
       0.005622378 0.0036255107 -0.01639789 -0.019082308
000170 2e c9 a5 3c b1 d2 f9 3c c6 5e b4 3c 8e af 11 bd
       0.020237532 0.030495973 0.022017848 -0.035567813
000180 91 1d 15 bd 1c 08 8d bc 63 96 2c bc 74 f0 6a 3c
       -0.03640515 -0.01721578 -0.010533902 0.014339555
000190 f8 4e 20 3d 52 bd 8d 3c 93 fd e6 bc 5c 14 fa bb
       0.03913781 0.017302189 -0.028197085 -0.0076318216
0001a0 15 87 5d bc 91 52 d1 bc 6d 41 b9 3c ae 5b 5b bb
       -0.013520976 -0.025552066 0.022614205 -0.0033471393
0001b0 6d 74 62 3d ff d7 20 bd 8b 3b 95 bc 9e a8 1b bd
       0.055286814 -0.03926849 -0.018216869 -0.038002603
0001c0 05 86 87 bb f5 42 c0 3c 40 a2 e2 3c 1c 19 5b bc
       -0.0041358494 0.023469428 0.027665257 -0.013372686
0001d0 53 8d e3 bb 47 55 8e 3c bb 57 a5 3c c0 e8 a1 bc
       -0.0069443374 0.017374648 0.020183435 -0.019764304
0001e0 71 2b 08 bd ed fb 03 bd 08 bd b9 bb 16 25 a5 3c
       -0.033244554 -0.032222677 -0.0056682862 0.020159286
0001f0 18 9b 40 3c 49 98 17 3d 54 1a 6a 3b 9e 11 06 bd
       0.011755727 0.037010465 0.003572126 -0.032731645
000200 60 ad 86 bc 28 b2 a9 3b ff 80 03 bd 1b 7f 99 3c
       -0.016440094 0.0051787086 -0.032105442 0.018737366
000210 90 61 ff 3c 65 01 bb bc 83 ff 87 bc d7 b0 82 bc
       0.031174451 -0.022827813 -0.01660133 -0.015953464
000220 5e 2b 3c 3c 66 c2 71 3c 6d 36 b4 3c 4d 62 8c bb
       0.011484949 0.014755821 0.021998608 -0.0042841793
000230 f6 a2 20 39 20 c4 91 3c 94 43 93 bd 67 3e ad 3c
       0.00015319497 0.017793715 -0.07190624 0.02114792
000240 eb c5 88 3d f8 04 5d bb 13 39 15 bd bd 38 bf bb
       0.06678375 -0.0033724885 -0.036431383 -0.005835621
000250 2d b8 3f bb c7 98 bf bc e7 39 d1 bb 78 df 86 3c
       -0.0029254064 -0.02338828 -0.0063850763 0.01646398
000260 e4 cc 09 3d 6a 3b 0b 3d 99 55 d5 bc b8 8f 2d 3d
       0.033642665 0.03399221 -0.026041793 0.04237339
000270 18 31 9b bc 30 78 0b 3d 82 60 da 3c 04 37 e5 bc
       -0.018944308 0.034050167 0.026657347 -0.027980335
000280 53 12 e8 3b 64 a2 39 bb 7c 58 ad 3a 18 5d 4a bc
       0.0070822625 -0.0028325552 0.0013225223 -0.012351297
000290 59 d0 ac bb 1b ca 0f 3d 18 ba 1e bd 83 8c 98 bc
       -0.0052738604 0.035104852 -0.03875169 -0.018621689
0002a0 2b cb 2f 3d 39 9f 60 bd a5 cc ce 3c 03 83 f4 bc
       0.042918365 -0.054839347 0.025244066 -0.029847628
0002b0 b2 ea 22 3d 1a 6c 07 bd 84 cc 63 3c 25 af e5 bc
       0.039774604 -0.033062078 0.013903741 -0.028037617
0002c0 34 f5 d9 bb 31 b9 d2 bc 69 10 ec 3c 03 9e 25 bc
       -0.006651545 -0.025723072 0.028816419 -0.010108474
0002d0 b6 6c 89 bc f8 56 1c bd 72 15 ac bc d7 22 1d 3d
       -0.01677547 -0.038168877 -0.02100632 0.038363304
0002e0 ca bd 21 bd 36 b6 b2 3c 7a 3c 6f bb 92 7a ec 3c
       -0.039487638 0.0218154 -0.0036504553 0.02886704
0002f0 f1 06 95 3c 56 e5 1e 3b 6c 36 b0 bc 7e cb 2e 3c
       0.018191786 0.0024245582 -0.021510325 0.0106686335
000300 b0 b6 f1 3c 29 96 f5 bc 64 98 12 3d 85 16 70 3c
       0.029506058 -0.029978829 0.035789862 0.014653807
000310 2c 74 26 bc 6e a6 18 3d 8f d7 5d bb 55 32 21 3d
       -0.0101595335 0.037268095 -0.0033850407 0.03935464
000320 57 86 43 3d dd c5 f9 bc 8b ce 85 bb d4 4b 22 3d
       0.04773554 -0.030489856 -0.0040834597 0.039623097
000330 0b 1b 15 bd 41 4c 41 bc 53 80 2b 3d 05 17 42 3d
       -0.036402743 -0.0117979655 0.041870426 0.047385234
000340 7c c6 15 bd bc b1 1b bd 3b e2 cc bc 16 0c 21 bc
       -0.036566243 -0.038011298 -0.025010219 -0.009829542
000350 af 16 cc 3c 08 85 f0 3c 25 ce 29 3d d5 3c 0f bd
       0.02491316 0.02936031 0.04145636 -0.034970123
000360 ec bf 02 bd f7 92 d4 3c a8 50 0b bd 8b f0 0e bd
       -0.031921312 0.025948985 -0.034012467 -0.03489737
000370 b4 aa 9e bc 3a e8 1f bd 69 1e 49 3c 1b 1b 65 3c
       -0.019368507 -0.039039828 0.012275317 0.013983513
000380 e3 06 be 3c 93 47 47 3d 8b 67 40 bc 7a 2b f3 bb
       0.023196643 0.048652243 -0.011743437 -0.0074209543
000390 1d 2d a1 3b bd df ae bb 67 66 0e bd 86 af 52 bc
       0.004918708 -0.0053367303 -0.034765627 -0.012859231
0003a0 b8 e7 5f 3b d2 5c f9 bc ea 5e ee bb 71 ed 0a 3d
       0.0034165215 -0.030439768 -0.007274498 0.033917848
0003b0 cf 07 7e 3c 94 d4 95 3c 7e c7 c9 bc fd c1 9b 3c
       0.015504791 0.018289842 -0.024631258 0.0190134
0003c0 f1 f4 ab bc c6 50 40 3d a1 e8 1c bd b2 41 83 bc
       -0.02099082 0.04695203 -0.03830779 -0.016022537
0003d0 4a bf dc bc 1d fa b5 3c c0 da d7 bb 97 a4 db 3c
       -0.026946682 0.02221399 -0.0065873563 0.026811881
0003e0 92 28 80 3b b7 59 02 3d 30 66 03 bc c0 a2 0f 3d
       0.0039110864 0.03182384 -0.008019969 0.03506732
0003f0 9b ee 68 3c aa 8f 33 3d 69 45 ee bc 5b 91 2b 3c
       0.014217044 0.04383818 -0.029085832 0.010471667

encoder.net.6.bias f4 [128]
000000 fe 2a a5 b8 87 1b c8 38 db 7d 05 b7 1f a9 aa 38
       -7.875821e-05 9.5418705e-05 -7.956721e-06 8.137733e-05
000010 75 94 a6 39 ae ab d8 39 0a ef 50 39 c2 38 72 37
       0.00031772596 0.00041326642 0.00019925475 1.4437539e-05
000020 c5 a7 51 ba 13 d7 20 ba 72 14 81 b9 42 61 01 3a
       -0.0007997717 -0.0006135564 -0.0002462003 0.0004935452
000030 ba 95 82 b9 ad 4e 02 b9 8f af ed 39 91 b6 04 3a
       -0.00024907087 -0.00012427075 0.00045334964 0.0005062605
000040 59 11 7b b9 7e 15 45 39 32 a3 05 3b f2 3a 15 ba
       -0.00023943688 0.0001879539 0.0020391461 -0.00056926825
000050 be 75 b2 38 2e 9e b9 37 90 78 1c b8 30 42 c4 b9
       8.5096326e-05 2.2127377e-05 -3.730558e-05 -0.00037433347
000060 34 7e 24 39 91 e4 8f 39 5f 90 e5 b7 c7 ff 51 b9
       0.00015687273 0.0002744538 -2.7366155e-05 -0.00020027078
000070 91 38 49 b9 59 cb 32 39 2e a4 9a ba 04 79 35 38
       -0.00019189926 0.00017051156 -0.0011798197 4.3266467e-05
000080 be 8c 20 ba 91 09 9e ba 92 b9 a2 b8 7e 27 fa b9
       -0.0006124488 -0.0012057294 -7.759327e-05 -0.0004771314
000090 5a 6c 60 b9 34 4c 0a b8 bd 01 d6 39 a2 60 fb b8
       -0.00021402669 -3.2972734e-05 0.00040818556 -0.00011986612
0000a0 79 73 dc b7 aa fe 4e 38 98 9c de b9 39 81 d3 ba
       -2.6279815e-05 4.93514e-05 -0.0004245981 -0.0016136534
0000b0 49 01 5c 3a 35 b1 00 b9 58 72 16 3a 2b 4c 07 b9
       0.00083925255 -0.00012273046 0.00057390844 -0.00012902978
0000c0 08 eb 28 39 74 86 b8 b9 e9 0c ca b9 fd 01 b2 b9
       0.00016109284 -0.0003519539 -0.0003853806 -0.00033952287
0000d0 87 ae d0 b9 77 05 bf 39 3b b3 52 ba 32 c2 c3 39
       -0.00039802885 0.0003643443 -0.00080375717 0.00037337985
0000e0 fa 45 c5 b9 18 6f 96 b7 b0 4b 2b b8 af 27 c4 b9
       -0.00037626905 -1.7933125e-05 -4.0840067e-05 -0.000374136
0000f0 78 68 14 b9 fd 87 2a 38 8c f3 45 37 52 5c 2c 39
       -0.00014153298 4.0657807e-05 1.179882e-05 0.0001643759
000100 c8 2c a9 b9 ba 46 cb b8 98 eb ff b8 78 e5 a4 39
       -0.00032267557 -9.692968e-05 -0.0001220323 0.00031451485
000110 9b 8f 0b 3a 0c d0 a6 38 db b4 95 ba 50 aa 9d 38
       0.0005323828 7.9542486e-05 -0.0011421697 7.5180666e-05
000120 51 ae b7 b9 dc 92 09 3a 38 36 af b7 cd 42 9c b6
       -0.00035034356 0.0005248019 -2.0886873e-05 -4.656939e-06
000130 13 d1 29 3a c6 9b 9e 39 98 27 12 ba 8e 64 5c ba
       0.0006477993 0.0003025217 -0.0005575358 -0.0008407318
000140 22 dc a0 b8 7c 64 48 b8 aa 34 9c 3a 24 8f 25 39
       -7.6703975e-05 -4.77773e-05 0.0011917551 0.0001578895
000150 59 30 0a 3a b2 5f a3 39 9e 29 6d 3a 8e 93 6f 39
       0.00052714866 0.0003116108 0.0009047034 0.00022847785
000160 86 0b 0c b8 67 31 62 b9 39 1b bc 37 3d 07 15 b9
       -3.3389333e-05 -0.00021571443 2.2424023e-05 -0.00014212444
000170 24 7c 27 39 b5 64 aa 39 50 a1 c2 39 22 ea 2d b9
       0.00015972607 0.0003249996 0.0003712275 -0.00016585787
000180 44 7a e8 b8 f6 62 c8 b9 1c 97 ac b9 6d 6f 84 39
       -0.00011085396 -0.00038220704 -0.00032918982 0.0002526002
000190 1d 1f 2b 3a 64 81 a3 3a 04 76 79 3a 19 1f 8b b8
       0.00065277686 0.0012474474 0.0009516182 -6.633829e-05
0001a0 a5 05 1c ba 56 2a 99 39 f8 8e e4 39 b8 b6 df ba
       -0.0005951769 0.00029213977 0.0004359407 -0.0017068004
0001b0 8c 57 df b9 c1 6a c6 b9 58 78 a6 39 be 24 7e b9
       -0.00042599102 -0.0003784504 0.0003175165 -0.00024237015
0001c0 6f 3c 2c b8 84 7a bf b8 c8 c0 76 b7 6c c7 b1 b8
       -4.106428e-05 -9.13041e-05 -1.4707628e-05 -8.477163e-05
0001d0 3e 7c 1d b7 39 a3 b7 b8 1c 28 1f 39 8f 07 8a 39
       -9.386857e-06 -8.7565226e-05 0.00015178364 0.00026327043
0001e0 46 df a0 38 51 63 db 39 20 30 13 ba d1 7d 30 39
       7.6709824e-05 0.00041844932 -0.0005614776 0.00016831538
0001f0 49 1d 0a b9 fa 95 17 36 cf 9f f8 39 47 5d b8 b9
       -0.00013171615 2.2588051e-06 0.00047421313 -0.00035164712

encoder.net.7.weight f4 [128]
000000 45 9a 7e 3f 81 bf 7b 3f 91 2d 7e 3f d9 05 7f 3f
       0.99454147 0.98339087 0.9928828 0.996183
000010 d2 0a 7d 3f a3 c9 7e 3f f0 05 7b 3f a3 a7 7e 3f
       0.98844635 0.99526423 0.98055935 0.99474543
000020 e6 70 7c 3f b8 8b 7d 3f 94 e3 7a 3f c9 00 7d 3f
       0.9860977 0.9904132 0.98003507 0.98829323
000030 7e 62 7c 3f 0d 4e 7b 3f 1c 07 7f 3f 5f 6d 89 3f
       0.9858779 0.9816597 0.99620223 1.0736502
000040 96 ed 7e 3f dc 93 7e 3f 80 43 7d 3f 65 fd 7e 3f
       0.9958128 0.99444366 0.9893112 0.996054
000050 fa 8b 7c 3f 4a 20 79 3f d1 a9 7c 3f 25 ec 85 3f
       0.9865109 0.97314894 0.9869662 1.046269
000060 b5 1f 7e 3f 46 45 7b 3f 38 96 7e 3f 2d 64 7d 3f
       0.9926713 0.9815258 0.99447966 0.9898098
000070 a2 39 7c 3f 88 0a 79 3f 48 4c 86 3f 04 6d 7e 3f
       0.9852544 0.97281694 1.0492029 0.99385095
000080 71 dd 7e 3f af 4a 83 3f ec 9f 7e 3f f4 00 7a 3f
       0.9955664 1.0257167 0.9946277 0.97657704
000090 5a 99 7b 3f 50 fc 7d 3f 14 10 7c 3f 05 2a 7b 3f
       0.9828087 0.99213123 0.98462033 0.9811099
0000a0 5b 1e 78 3f 6b 8a 7d 3f b7 42 7c 3f 33 36 7d 3f
       0.9692132 0.99039334 0.985393 0.98910826
0000b0 35 d0 7d 3f 11 69 7e 3f 6f b2 7c 3f 78 5e 7d 3f
       0.99145824 0.9937907 0.9870977 0.9897227
0000c0 62 67 7c 3f 43 c9 7c 3f fd 00 7c 3f b0 af 7d 3f
       0.9859525 0.987446 0.9843901 0.990962
0000d0 ac 07 7d 3f 23 3c 7a 3f 61 e9 7e 3f 41 69 7e 3f
       0.9883983 0.9774801 0.9957486 0.99379355
0000e0 4a 61 7e 3f 15 13 7e 3f 1f 7e 7b 3f be a8 7d 3f
       0.993672 0.99247867 0.9823932 0.99085605
0000f0 f3 5a 7b 3f d2 3d 7c 3f 17 8f 7d 3f ec 0a 7b 3f
       0.9818565 0.9853183 0.9904646 0.9806354
000100 67 40 7d 3f 70 f8 7d 3f 2c a6 7b 3f e2 0e 79 3f
       0.98926395 0.9920721 0.98300433 0.97288334
000110 7e 38 80 3f 9b bb 7d 3f 00 c1 80 3f 8f 44 7e 3f
       1.001724 0.9911439 1.0058899 0.9932336
000120 c2 af 79 3f c9 64 7d 3f 28 95 7e 3f 41 9e 7e 3f
       0.9753381 0.9898191 0.99446344 0.99460226
000130 5d a6 7a 3f b9 7f 7c 3f ec f3 7d 3f f4 5f 79 3f
       0.979101 0.9863239 0.9920032 0.9741204
000140 61 3f 7b 3f c1 73 79 3f 50 03 84 3f d9 d2 7d 3f
       0.98143584 0.9744225 1.0313511 0.99149853
000150 44 e0 7b 3f f0 ef 7c 3f 80 22 7b 3f ee 1d 7b 3f
       0.9838908 0.98803616 0.9809952 0.98092544
000160 07 88 7c 3f e0 05 7c 3f 16 48 7a 3f e3 2e 7d 3f
       0.9864506 0.98446465 0.97766244 0.9889967
000170 54 4d 7e 3f a6 9e 7c 3f 0f 22 7c 3f 2f 41 7c 3f
       0.99336743 0.9867958 0.9848947 0.9853696
000180 7b d3 7c 3f 89 70 7c 3f 53 e2 7a 3f 37 e0 7d 3f
       0.98760194 0.98609215 0.98001593 0.9917025
000190 21 0f 7c 3f e1 b3 7c 3f 82 1d 7e 3f 8a ad 78 3f
       0.98460585 0.98711973 0.99263775 0.971398
0001a0 17 c9 7c 3f d1 4b 7e 3f bb e8 7b 3f 9d 86 85 3f
       0.9874434 0.99334437 0.98401994 1.0431706
0001b0 76 07 7f 3f 0c 93 7d 3f 6e 4b 7d 3f 5b 41 7d 3f
       0.9962076 0.990525 0.9894322 0.9892785
0001c0 7a e1 7c 3f 21 42 78 3f a3 6c 7c 3f ca b4 7b 3f
       0.9878155 0.96975905 0.98603266 0.9832274
0001d0 07 4c 7d 3f c3 91 7d 3f 6a 60 7c 3f ff 1c 7e 3f
       0.98944134 0.9905054 0.98584616 0.99262995
0001e0 2d 52 7b 3f 59 e6 7b 3f 6b 32 79 3f 88 ac 78 3f
       0.98172265 0.9839836 0.97342557 0.9713826
0001f0 5a 24 7a 3f 90 b7 7e 3f b3 0a 7a 3f 9b 5a 7d 3f
       0.9771172 0.99498844 0.97672576 0.9896638

encoder.net.7.bias f4 [128]
000000 81 4c 58 bc 5c 22 9c bb 1c 07 94 bb df df 43 bc
       -0.013201834 -0.004764838 -0.004517449 -0.0119552305
000010 b3 29 13 bc 1d ae 4d bc 23 1e c0 bc 79 d3 a9 bb
       -0.00898211 -0.012553719 -0.02345187 -0.00518268
000020 5c 65 7b bc 08 a5 90 bc de 40 41 bc e5 9b 9d bb
       -0.01534399 -0.017656818 -0.011795251 -0.004809844
000030 cb 64 79 bb b1 4c a2 bc 88 54 60 bc 27 ef 2b bd
       -0.0038054462 -0.01981196 -0.013692029 -0.04197612
000040 75 70 a4 bc 71 36 1c bc 75 96 b2 bc 69 00 84 3a
       -0.020073155 -0.009534464 -0.02180026 0.0010070923
000050 7f ab 0d bc 94 88 84 bc 75 c0 ba bb e0 45 08 bd
       -0.008646845 -0.016178407 -0.005699212 -0.033269763
000060 f7 0c 23 bc c7 3a 91 bc f8 3c 0c bc 83 5e 9b bb
       -0.0099518215 -0.017728223 -0.008559458 -0.0047414913
000070 0b 71 78 bc 14 d9 5a bc 11 99 f3 3c a8 89 1b bc
       -0.01516367 -0.0133574195 0.029736074 -0.009493269
000080 40 ac 7d 3b 13 68 9e bc 4e 24 06 bc 9b 4a bb bc
       0.0038707405 -0.019336736 -0.008187367 -0.022862723
000090 6b c7 b7 bc 8e 24 f5 bb 87 38 86 bb cb 6f 38 bc
       -0.022433957 -0.0074811643 -0.004096094 -0.011257122
0000a0 4b 95 c5 bc 49 9e 94 bc 31 95 ad bc b2 aa 82 bc
       -0.02411904 -0.018141882 -0.021189304 -0.015950534
0000b0 51 39 cb bb 17 8f 87 ba ee c3 01 bc 80 1a 97 ba
       -0.006201901 -0.0010342327 -0.007920248 -0.0011528283
0000c0 1a 18 44 bc c9 5d eb bb 26 ff b8 bc 3f fe fb ba
       -0.011968637 -0.007182811 -0.022582602 -0.0019225552
0000d0 ad ae 70 bc 45 4b 12 bd 45 0c 5a bc 0e 7c 26 bc
       -0.014690083 -0.035716314 -0.013308589 -0.010161413
0000e0 67 cf 7e bc 5c 52 1b bc 07 aa a9 bc 15 47 8f bc
       -0.015552378 -0.009480085 -0.020710958 -0.01748995
0000f0 45 c4 74 bc 56 1d d4 bc ef c6 85 bc 25 be bd bb
       -0.014939372 -0.025892895 -0.01633021 -0.0057904893
000100 e1 ba 05 bc f7 16 07 bb d4 48 69 bc cc 3b cd bc
       -0.008162231 -0.0020613053 -0.014238555 -0.025052927
000110 c3 38 31 bb 5c 4c 12 bc 50 6f 90 3b 45 96 25 bc
       -0.002704189 -0.008929338 0.0044078007 -0.010106628
000120 a2 1d ca bc 65 cd b7 bb 2b 5d 1d bc d0 9e 1b bc
       -0.024672333 -0.0056092017 -0.0096047325 -0.009498313
000130 ff 6b 03 bc d5 2c 5a bc fd 88 b1 bb 82 a7 af bc
       -0.008021354 -0.013316353 -0.0054179416 -0.021442179
000140 46 ba a5 bc f1 79 0d bc 37 f6 28 bc 97 74 68 bc
       -0.020230424 -0.00863503 -0.010312608 -0.014187953
000150 92 e4 99 bc d5 50 2c bc ed 15 ba bc 4e e5 fd bc
       -0.018785749 -0.010517319 -0.022715533 -0.03099313
000160 15 eb 96 bc 05 f7 1c bc 8e be ad bc 01 ed 94 bb
       -0.018422643 -0.009580378 -0.021209028 -0.0045448546
000170 31 83 f0 bb d6 72 6c bc 09 f8 5a bc c6 af 06 bc
       -0.007339858 -0.014431676 -0.0133648 -0.008220619
000180 7d 01 43 bc fd 2f 59 bc 97 fd 4e bc df 84 1e bc
       -0.01190221 -0.01325607 -0.012633703 -0.009675234
000190 36 9d 2a bc 6b 40 12 ba 31 d4 64 bc f0 76 9e bc
       -0.010413459 -0.0005579057 -0.013966606 -0.019343823
0001a0 07 01 69 bc 9e 9c 7f bb 49 e3 32 bc 8f dd 21 bd
       -0.014221436 -0.0039003263 -0.010918447 -0.039517935
0001b0 f6 eb 06 bc 50 35 82 bc cf b8 c5 bb 73 22 a8 bc
       -0.008234968 -0.015894562 -0.006033994 -0.02052424
0001c0 33 34 d2 bc 43 6b 03 bd a5 2b 9d bc 75 1a 91 bc
       -0.025659656 -0.032084715 -0.01918585 -0.017712811
0001d0 b1 79 39 bc ea 45 27 bc 4d f7 63 bc c7 8a 66 bc
       -0.011320517 -0.01020954 -0.013913942 -0.014071173
0001e0 78 65 49 bc 52 73 79 bb 16 c2 9b bc 03 4b e1 bc
       -0.012292258 -0.003806312 -0.019013446 -0.027501589
0001f0 01 c6 91 bc 2e cd 6c bc e1 96 d3 bc b3 45 aa ba
       -0.017794611 -0.0144532155 -0.02582878 -0.0012990743

classifier.0.weight f4 [256, 513]
000000 5b 2c 04 bb 36 de 05 bb 32 59 06 bb dd c7 f0 ba
       -0.002016804 -0.0020426637 -0.0020499942 -0.0018370111
000010 0d fc 04 bb ed 7f 02 bb f1 6b ff ba 16 14 fb ba
       -0.0020291836 -0.0019912675 -0.0019487125 -0.0019155766
000020 4d dd 08 bb 54 c1 0c bb 8e 99 f2 ba 43 94 0a bb
       -0.0020883859 -0.0021477537 -0.0018508898 -0.00211455
000030 cf 49 0f bb 7d 20 16 bb f0 4e 0b bb 45 5c aa ba
       -0.0021864062 -0.0022907548 -0.0021256767 -0.0012997469
000040 42 34 0c bb 74 cd 0e bb f4 81 09 bb 68 f7 14 bb
       -0.0021393453 -0.002178994 -0.0020982 -0.0022730473
000050 92 31 fe ba 09 23 07 bb 65 f1 03 bb a2 6f bb ba
       -0.0019393435 -0.0020620248 -0.0020132896 -0.0014300237
000060 15 82 f4 ba 66 6b 04 bb 2b f7 fa ba 63 57 03 bb
       -0.001865449 -0.0020205616 -0.0019147148 -0.00200411
000070 27 4d 0b bb 9e 75 09 bb 02 f6 e5 ba 5b 63 02 bb
       -0.0021255703 -0.0020974646 -0.001754463 -0.0019895646
000080 3e f0 05 bb 7d f0 dc ba 8d a5 0d bb b1 10 fe ba
       -0.0020437385 -0.0016856339 -0.0021613569 -0.0019383637
000090 e5 0f 10 bb fd 89 04 bb de 07 ff ba 58 b0 03 bb
       -0.002198213 -0.002022385 -0.0019457301 -0.0020094123
0000a0 44 7a 00 bb ff 23 08 bb 1e 3b 09 bb dd 6a fd ba
       -0.0019604126 -0.0020773408 -0.0020939778 -0.0019334216
0000b0 df a8 08 bb a2 06 0d bb 64 24 0c bb 78 e1 09 bb
       -0.0020852608 -0.0021518846 -0.0021383995 -0.002103893
0000c0 b8 2f 0b bb 0e fe 04 bb a1 01 00 bb 29 d4 03 bb
       -0.002123816 -0.002029303 -0.001953222 -0.002011547
0000d0 11 58 0b bb 75 04 05 bb ba 4a 01 bb d8 5c 0c bb
       -0.0021262208 -0.0020296846 -0.0019728378 -0.0021417644
0000e0 ea fb 02 bb 5a 3c 05 bb 1c 26 09 bb c5 fb e1 ba
       -0.0019986578 -0.0020330162 -0.0020927256 -0.0017241171
0000f0 3d 3d ef ba fc e7 0e bb 52 5e 02 bb c6 6b 08 bb
       -0.0018252503 -0.0021805754 -0.0019892645 -0.002081619
000100 16 cf 0b bb d3 90 06 bb b6 63 01 bb a8 81 09 bb
       -0.002133315 -0.00205331 -0.001974327 -0.0020981822
000110 e3 44 0e bb da db 08 bb 87 1f 10 bb 6b 30 10 bb
       -0.002170854 -0.0020882995 -0.0021991448 -0.0022001516
000120 7a 33 09 bb 55 93 06 bb ae db f3 ba 93 80 0e bb
       -0.0020935223 -0.0020534594 -0.0018604898 -0.0021744117
000130 67 89 04 bb c2 53 0c bb 43 2c 00 bb e6 08 06 bb
       -0.00202235 -0.0021412228 -0.0019557632 -0.0020452081
000140 7e f8 09 bb 81 2a f7 ba 51 5e d0 ba 25 59 02 bb
       -0.0021052654 -0.0018857272 -0.0015897249 -0.001988956
000150 3e 97 07 bb 89 1a 0a bb 75 2e 12 bb 88 36 02 bb
       -0.0020689513 -0.0021072945 -0.0022305523 -0.001986893
000160 d8 ee 0a bb 85 35 08 bb 1b 5e 10 bb e0 dc f7 ba
       -0.002119949 -0.0020783853 -0.0022028747 -0.001891043
000170 ab 6d 04 bb 73 39 02 bb fe 83 ef ba 62 16 10 bb
       -0.0020206969 -0.0019870668 -0.001827359 -0.0021985997
000180 8b a8 0e bb 71 07 f2 ba 7b 49 0c bb e6 6b 0e bb
       -0.002176794 -0.0018465352 -0.0021406102 -0.0021731793
000190 7a 68 03 bb 7b 34 0d bb a6 06 ff ba a6 44 00 bb
       -0.0020051287 -0.0021546173 -0.0019456937 -0.0019572168
0001a0 de b3 ed ba 91 f4 01 bb 2c 6b 06 bb 36 c2 da ba
       -0.001813527 -0.001982961 -0.0020510657 -0.001668996
0001b0 da 0d e7 ba 19 b8 00 bb c2 d8 f8 ba 4e e9 0c bb
       -0.001762803 -0.001964098 -0.0018985497 -0.0021501365
0001c0 80 d6 04 bb 29 79 10 bb f9 0c 04 bb 31 b1 fe ba
       -0.0020269454 -0.0022044873 -0.0020149334 -0.0019431469
0001d0 09 7e 03 bb 62 b2 06 bb 3a 45 00 bb f5 db 00 bb
       -0.0020064136 -0.0020553102 -0.0019572512 -0.0019662355
0001e0 15 c8 02 bb e2 9e 03 bb 67 2f 04 bb c3 0c 0f bb
       -0.0019955684 -0.0020083715 -0.0020169856 -0.0021827675
0001f0 4e a8 04 bb 0d af 10 bb 5b 55 10 bb 1c 4f 02 bb
       -0.002024192 -0.0022076995 -0.0022023532 -0.0019883579
000200 d8 5a fd ba 82 f8 0b bb 72 f8 22 bb fb 21 e5 ba
       -0.0019329442 -0.002135784 -0.0024867323 -0.001748144
000210 a8 1a 04 bb 5a 12 00 bb 45 43 f7 ba 91 61 20 bb
       -0.002015749 -0.0019542188 -0.0018864652 -0.0024472217
000220 ab 53 19 bb 7c 77 1d bb c5 51 ed ba 69 ec 04 bb
       -0.0023395817 -0.0024027517 -0.0018106034 -0.0020282513
000230 b4 9a e9 ba 5a 00 19 bb 4b 83 31 bb 43 21 31 bb
       -0.0017822594 -0.0023346157 -0.0027086313 -0.0027027882
000240 a3 ad 10 bb 08 29 04 bb 9e f3 f4 ba df b5 0a bb
       -0.0022076152 -0.0020166058 -0.0018688326 -0.0021165533
000250 f6 d6 f8 ba 2c 1e e1 ba 19 28 1a bb 33 20 2e bb
       -0.0018984962 -0.001717513 -0.0023522435 -0.0026569485
000260 a7 16 e9 ba a2 dd 02 bb 7b 21 0c bb 9b b2 25 bb
       -0.001778324 -0.001996853 -0.002138226 -0.002528346
000270 db 34 02 bb a3 1b 0a bb a1 f0 0b bb e9 bd f1 ba
       -0.001986793 -0.0021073602 -0.0021353143 -0.0018443438
000280 86 35 1a bb 75 fc 11 bb 53 fc f4 ba bb b3 0f bb
       -0.0023530438 -0.002227572 -0.0018690921 -0.0021927196
000290 a4 f1 30 bb e2 25 22 bb b8 13 02 bb a7 b5 f5 ba
       -0.0026999498 -0.0024741818 -0.001984818 -0.0018746153
0002a0 b1 5c 0e bb 9b 62 2d bb 10 39 d3 ba 1e 56 08 bb
       -0.002172273 -0.0026456479 -0.0016115028 -0.0020803283
0002b0 16 4a 1d bb aa 60 11 bb 2d 3d 04 bb 7b 2e 14 bb
       -0.0024000457 -0.002218286 -0.0020178065 -0.0022610712
0002c0 02 16 23 bb dd 03 d3 ba 79 0d 19 bb 0a 5f fc ba
       -0.0024884944 -0.0016099174 -0.0023353978 -0.0019254398
0002d0 c3 00 f4 ba aa e4 07 bb b9 6a 14 bb b8 28 1a bb
       -0.001861595 -0.002073566 -0.002264662 -0.0023522805
0002e0 54 e7 1b bb 84 2c e4 ba cf 2f 17 bb d2 55 f7 ba
       -0.0023789005 -0.0017408286 -0.0023069268 -0.0018870181
0002f0 e9 81 14 bb ce 52 16 bb df c4 ee ba ea 79 15 bb
       -0.002266044 -0.002293754 -0.0018216631 -0.0022808262
000300 08 7b 13 bb 0a 3d 23 bb 97 53 ff ba 44 b1 ff ba
       -0.0022503752 -0.0024908208 -0.0019479868 -0.0019507785
000310 11 1a 0a bb 6e dc 25 bb da 03 09 bb 4b 73 25 bb
       -0.0021072666 -0.0025308388 -0.0020906837 -0.0025245722
000320 d9 89 04 bb 2f 73 e4 ba a0 73 17 bb ff 91 1d bb
       -0.0020223765 -0.0017429347 -0.002310969 -0.002404332
000330 d9 24 f3 ba ac a9 eb ba 25 38 06 bb a0 c6 13 bb
       -0.001855041 -0.0017979643 -0.0020480242 -0.002254881
000340 99 58 14 bb 6c e6 dd ba 44 af 16 bb fb 6e 05 bb
       -0.0022635816 -0.0016929633 -0.002299265 -0.002036034
000350 57 34 01 bb c3 75 1a bb 9b dc dc ba 32 18 e6 ba
       -0.0019715035 -0.0023568727 -0.0016850414 -0.0017554818
000360 b3 94 19 bb 7c 64 33 bb 3a 04 28 bb d8 96 1a bb
       -0.002343458 -0.0027373126 -0.0025637285 -0.0023588445
000370 6d 5b 0d bb 2a a4 e0 ba 80 c4 03 bb e3 3a 05 bb
       -0.0021569387 -0.0017138768 -0.0020106137 -0.0020329289
000380 ff 00 08 bb 16 e0 0f bb 1f 73 1c bb 3e f7 0c bb
       -0.0020752547 -0.0021953634 -0.0023872328 -0.0021509673
000390 2b 21 17 bb 15 04 ea ba 88 01 eb ba 36 8a f8 ba
       -0.002306054 -0.0017854 -0.0017929533 -0.0018962089
0003a0 b3 de d5 ba c5 5c 04 bb f1 78 1a bb d1 71 0f bb
       -0.001631698 -0.0020196897 -0.0023570622 -0.0021887908
0003b0 36 c9 1f bb 7a d0 e4 ba e6 0f ee ba 8a 7b 1d bb
       -0.0024381406 -0.001745715 -0.0018162697 -0.0024029934
0003c0 63 13 0e bb 35 98 f1 ba 5a 6f 14 bb 94 79 f0 ba
       -0.0021679036 -0.0018432202 -0.0022649379 -0.001834678
0003d0 11 51 e8 ba c4 42 15 bb ad ef 00 bb 64 6f 18 bb
       -0.0017724355 -0.002277539 -0.0019674108 -0.0023259753
0003e0 b8 f4 0e bb 21 8b 04 bb 08 68 0b bb 68 ea 02 bb
       -0.0021813344 -0.002022453 -0.0021271724 -0.0019976143
0003f0 e3 86 f0 ba a2 aa 1b bb 0d fe f3 ba 8f 3b fa ba
       -0.0018350746 -0.0023752828 -0.0018615142 -0.0019091236
