pure_noise_model/noise_extractor_best.pth (torch, 911855 bytes, 18 tensors)

encoder.pre_process.kernel f4 [3, 1, 3, 3]
0	0xbf800000	-1.0
1	0xbf800000	-1.0
2	0xbf800000	-1.0
3	0xbf800000	-1.0
4	0x41000000	8.0
5	0xbf800000	-1.0
6	0xbf800000	-1.0
7	0xbf800000	-1.0
8	0xbf800000	-1.0
9	0xbf800000	-1.0
10	0xbf800000	-1.0
11	0xbf800000	-1.0
12	0xbf800000	-1.0
13	0x41000000	8.0
14	0xbf800000	-1.0
15	0xbf800000	-1.0
16	0xbf800000	-1.0
17	0xbf800000	-1.0
18	0xbf800000	-1.0
19	0xbf800000	-1.0
20	0xbf800000	-1.0
21	0xbf800000	-1.0
22	0x41000000	8.0
23	0xbf800000	-1.0
24	0xbf800000	-1.0
25	0xbf800000	-1.0
26	0xbf800000	-1.0

encoder.net.0.weight f4 [32, 3, 3, 3]
0	0x3bb8709a	0.0056286575
1	0x3d778140	0.060425997
2	0x3e32e2a4	0.17469269
3	0x3d73e2a0	0.0595423
4	0x3c0e9ac8	0.008703895
5	0x3e2dfa0e	0.1698992
6	0x3b393177	0.0028258243
7	0xbe2d5d16	-0.1693004
8	0xbe3f6216	-0.1868976
9	0xbddcfec4	-0.1079078
10	0xbda26325	-0.079290666
11	0xbe22f56f	-0.15913938
12	0x3db935c9	0.09043462
13	0xbd9c693b	-0.076372586
14	0x3d127f15	0.035765726
15	0x3d31c486	0.04340031
16	0xbda0fd1b	-0.07860776
17	0x3dc11709	0.09428222
18	0xbcefc9b5	-0.029270986
19	0x3d153422	0.03642667
20	0xbd805235	-0.0626568
21	0xbdef55ba	-0.11686273
22	0x3e292257	0.16517006
23	0xbe2d6ac5	-0.1693526
24	0x3de9b663	0.11411741
25	0x3e2b261e	0.1671376
26	0x3ccb88c7	0.024845494
27	0x3e215dde	0.15758464
28	0x3d8d339d	0.0689461
29	0xbc29de6e	-0.010367973
30	0xbe263294	-0.16230232
31	0xbc01665b	-0.007897939
32	0xbdcc9944	-0.099901706
33	0x3c0e98f7	0.008703462
34	0xbdb396cd	-0.08768997
35	0xbd1d0de7	-0.038343336
36	0xbe1592fa	-0.14606848
37	0xbe49b83b	-0.19699185
38	0x3d92e93d	0.07173393
39	0xbd456585	-0.04819252
40	0xbdacb68a	-0.08433254
41	0xbcfedc91	-0.031111034
42	0x3ce18209	0.027527826
43	0x3dace64c	0.08442363
44	0x3e223f06	0.15844354
45	0x3c90e3e1	0.017686786
46	0x3e2daac5	0.16959675
47	0x3de72001	0.11285401
48	0x3d97b1e8	0.0740698
49	0xbd5c686b	-0.05381052
50	0xbe312941	-0.17300893
51	0x3e16d1d6	0.14728484
52	0x3e435978	0.19077098
53	0x3d05b8ae	0.032646827
54	0x3caf985f	0.02143496
55	0xbdebdb04	-0.11516383
56	0xbe135f06	-0.14391717
57	0xbe47bd7d	-0.19505878
58	0x3d053213	0.032518458
59	0x3e28174a	0.16415134
60	0xbcfd33ea	-0.030908544
61	0xbdfa2e80	-0.122159004
62	0x3e401b12	0.18760327
63	0xbdf69851	-0.12040771
64	0x3d9091c7	0.07059055
65	0x3e05925b	0.13044111
66	0x3dd5723c	0.10422179
67	0x3dd418df	0.10356306
68	0xbc8043fd	-0.01565742
69	0x3dcb99f9	0.09941477
70	0xbaa381d1	-0.0012474601
71	0x3e00df27	0.12585126
72	0xbdc1f5b6	-0.09470694
73	0xbdcf502e	-0.10122715
74	0xbe4cc4d4	-0.19996959
75	0x3e0acb09	0.13554014
76	0xbd9da19d	-0.07696841
77	0x3df0d04e	0.11758481
78	0x3d916167	0.07098656
79	0xbdf2f6a4	-0.11863449
80	0xbe1391c1	-0.1441107
81	0xbd6d5280	-0.057940006
82	0xbdee5bec	-0.116386265
83	0x3d023ab7	0.031794276
84	0x3ccc6069	0.024948316
85	0x3d69674c	0.056983277
86	0xbd412d17	-0.04716214
87	0x3daaa84b	0.083328806
88	0xbe3933e5	-0.18086202
89	0xbd0f73f5	-0.035022695
90	0xbdf7d4ff	-0.12101173
91	0x3c84c668	0.016207889
92	0x3debf8a0	0.11522031
93	0x3dbfa9ea	0.093585804
94	0xbd6b0df2	-0.057386346
95	0xbdeb3287	-0.11484247
96	0xbc264666	-0.01014862
97	0xbe37413d	-0.1789598
98	0xbe374d70	-0.17900634
99	0x3ded4187	0.11584764
100	0x3d2ca833	0.042152595
101	0x3e2fe20a	0.17176071
102	0x3d442d48	0.047894746
103	0x3cfa9c9c	0.030592255
104	0x3da0de21	0.07854868
105	0x3cc29319	0.023751782
106	0xbe3f0657	-0.18654762
107	0xbb7d328a	-0.003863486
108	0x3d92a7f6	0.07160942
109	0xbd9c030c	-0.07617769
110	0xbe2f053a	-0.17091838
111	0x3e048e1a	0.12944832
112	0x3d91be1f	0.07116341
113	0xbe3085c4	-0.17238528
114	0xbd18fa75	-0.03734823
115	0x3c94b793	0.018153941
116	0xbdd49bd1	-0.10381282
117	0x3d19f9ba	0.037591673
118	0xbe1e4c6a	-0.15458837
119	0x39b146cf	0.00033812827
120	0x3e35de98	0.17760694
121	0xbdce4862	-0.100724
122	0xbe228f7f	-0.15875052
123	0x3e3632f7	0.17792879
124	0x3dde98d9	0.10868997
125	0xbe154ece	-0.14580843
126	0xbce3d1e4	-0.027810045
127	0x3ca879d6	0.020565908
128	0x3e133222	0.14374593
129	0xbe37982b	-0.17929141
130	0xbdcacc3c	-0.09902236
131	0xbd7a11fa	-0.0610523
132	0x3db7749e	0.0895779
133	0x3dd38668	0.1032837
134	0x3d218096	0.03942927
135	0xbd2fbd9b	-0.04290543
136	0x3db1a8e9	0.08674795
137	0x3d801e23	0.06255748
138	0x3e1fbfa2	0.15600446
139	0x3e05baff	0.13059615
140	0xbe1be9fb	-0.15225975
141	0x3cfd4808	0.030918136
142	0x3d556826	0.052101277
143	0x3e33ce72	0.17559221
144	0x3cc1d640	0.023661733
145	0xbdc1d926	-0.09465246
146	0x3cb16c85	0.021658191
147	0x3d8d91e2	0.069125906
148	0xbdd81f0e	-0.10552798
149	0x3c891560	0.016733825
150	0xbcac10c1	-0.021004083
151	0x3e049e04	0.12950903
152	0xbdb9852e	-0.09058605
153	0xbe010744	-0.12600428
154	0xbdd581d9	-0.10425157
155	0xbe1a90bb	-0.15094273
156	0x3e049151	0.12946059
157	0x3d9dc794	0.07704082
158	0x3e0cd5af	0.13753389
159	0x3e437189	0.19086279
160	0x3dfe4e21	0.12417246
161	0x3e3aeede	0.18255183
162	0xbd9ad3e3	-0.075599454
163	0xbdbbe375	-0.09174243
164	0x3c8e89eb	0.017399749
165	0x3cfdfb95	0.031003753
166	0xbda96c33	-0.082725905
167	0x3e2dfeeb	0.16991775
168	0x3e2cf9b2	0.16892126
169	0xbe0b1c85	-0.13585098
170	0xbdeae586	-0.11469559
171	0x3c244fe7	0.010028816
172	0x3d498cf8	0.049206704
173	0x3da1ef75	0.07907001
174	0x3ba347d5	0.0049829283
175	0x3d6be856	0.05759462
176	0x3c38c80b	0.011278163
177	0x3c37af08	0.011211164
178	0x3dc64c59	0.09682531
179	0xba041b48	-0.00050394656
180	0xbdf7af39	-0.12093968
181	0x3dc67304	0.09689906
182	0x3dbacb16	0.09120767
183	0x3e28c323	0.16480689
184	0x3d1915be	0.03737425
185	0x3dee06cd	0.11622391
186	0xb9f3cbb7	-0.0004650035
187	0x3e28043e	0.16407868
188	0xbcbe0265	-0.023194501
189	0x3e002324	0.12513405
190	0xbcbd4f7c	-0.02310919
191	0x3e1613ab	0.1465594
192	0x3da32e09	0.07967765
193	0x3e248106	0.16064844
194	0x3cad8884	0.02118326
195	0x3c4ad9e2	0.012381049
196	0xbd5cc41a	-0.053897955
197	0xbe2c5076	-0.16827568
198	0xbc3fac91	-0.011698858
199	0x3e257098	0.16156232
200	0x3e1f9874	0.155855
201	0x3d4dfd25	0.050290246
202	0x3d95a0ea	0.073060825
203	0xbe2bf1e4	-0.16791493
204	0x3d430a40	0.047617197
205	0x3e048e1b	0.12944834
206	0x3d1cc5cd	0.038274575
207	0x3cafa943	0.021443015
208	0x3da8400e	0.082153425
209	0x3c8d5307	0.017251505
210	0x3e261075	0.16217215
211	0xbd85e772	-0.06538285
212	0x3e2f0798	0.1709274
213	0xbe2ae7d5	-0.1669
214	0x3e280fa4	0.16412216
215	0xbc6bc1ab	-0.014389436
216	0xbdd908e3	-0.10597398
217	0xbce81356	-0.028329533
218	0xbe0ff799	-0.14059295
219	0xbd9a88df	-0.07545637
220	0x3e27cc66	0.16386566
221	0xbd931cba	-0.071832135
222	0x3e1d98d2	0.15390328
223	0x3e084c71	0.1331041
224	0x3e21c292	0.15796879
225	0x3ccbcec4	0.024878867
226	0xbe140327	-0.14454328
227	0xbd375f89	-0.044768844
228	0xbdf37273	-0.11887064
229	0x3e19b2e9	0.15009655
230	0x3df146d2	0.11781086
231	0xbdac675c	-0.08418152
232	0xbc081ab6	-0.00830715
233	0xbc5d4bc3	-0.0135068325
234	0xbd9bee42	-0.076138034
235	0xbe0c4298	-0.13697278
236	0xbde5de21	-0.11224008
237	0x3e155ada	0.14585438
238	0xbe37a70e	-0.1793482
239	0xbdaaf134	-0.08346787
240	0xbd47a751	-0.04874355
241	0xbda3a28b	-0.07989987
242	0x3c277d7f	0.010222792
243	0xbd5742b8	-0.052553862
244	0xbe23edaf	-0.16008638
245	0x3e34d19e	0.17658088
246	0xbd83ef99	-0.06442184
247	0xbcdfe27a	-0.027329672
248	0xbdb5e2ca	-0.08881147
249	0xbd1dfe77	-0.038572755
250	0xbe2bf459	-0.1679243
251	0xba7bfbea	-0.0009612428
252	0xbdfb3d3b	-0.12267538
253	0x3c1ed3df	0.009694069
254	0xbe351477	-0.17683588
255	0xbe347094	-0.1762107

encoder.net.0.bias f4 [32]
0	0x3df59e32	0.11993064
1	0xbb06a1da	-0.0020543248
2	0x3c6a5181	0.014301659
3	0xbc25655e	-0.010094969
4	0x3e0e900d	0.13922139
5	0x3b8168ea	0.0039492743
6	0x3b043a44	0.002017633
7	0x3a7222f2	0.00092367746
8	0xbd8ac340	-0.06775522
9	0x3ab55969	0.001383585
10	0x3d5339eb	0.051568907
11	0x3e303b91	0.17210223
12	0x3db1c1a0	0.08679509
13	0x3d1ba56a	0.037999548
14	0x3d3ff52f	0.046864685
15	0xbbe8861b	-0.0070960647
16	0xbd80b322	-0.06284167
17	0xbde4f743	-0.11179974
18	0x3a82eff1	0.0009989721
19	0xbc1ee3bd	-0.009697852
20	0x3ba531c0	0.005041331
21	0x3cccd4d3	0.025003826
22	0x3dc3b0f1	0.09555233
23	0x3bf397c4	0.0074338634
24	0xba8e2055	-0.0010843376
25	0x3a915cb7	0.0011090253
26	0xbbcf75c8	-0.0063311793
27	0x3b068394	0.0020525204
28	0x3c894074	0.016754366
29	0x3e244634	0.16042405
30	0xbd0e8d79	-0.034802888
31	0x3c102b28	0.008799352

encoder.net.1.weight f4 [32]
0	0x3f885c11	1.0653096
1	0x3f7b8e5a	0.98264086
2	0x3f7d20a1	0.9887791
3	0x3f785bae	0.9701489
4	0x3f7b8ea3	0.9826452
5	0x3f7b220d	0.9809883
6	0x3f7b0750	0.98058033
7	0x3f771099	0.965097
8	0x3f80e1f2	1.0068953
9	0x3f7c19e2	0.98476994
10	0x3f78859f	0.9707889
11	0x3f82f9cd	1.0232483
12	0x3f7c857e	0.9864119
13	0x3f79879e	0.9747256
14	0x3f719924	0.943743
15	0x3f7e8c45	0.99432784
16	0x3f75d2b4	0.9602463
17	0x3f806270	1.0030041
18	0x3f7a29a3	0.9771978
19	0x3f7c7c65	0.9862731
20	0x3f7f7c51	0.99799067
21	0x3f7ce7e3	0.9879133
22	0x3f79059b	0.9727418
23	0x3f7c10de	0.9846324
24	0x3f7d7602	0.9900819
25	0x3f898d82	1.074631
26	0x3f7b17c9	0.9808317
27	0x3f80d738	1.006568
28	0x3f7c44d0	0.985425
29	0x3f7060da	0.93897784
30	0x3f826401	1.0186769
31	0x3f7c29ad	0.9850109

encoder.net.1.bias f4 [32]
0	0x3b5b7ba2	0.003349044
1	0xbcc85d6d	-0.024458611
2	0xbb2be544	-0.0026229182
3	0xba37a949	-0.00070061215
4	0xbc19750a	-0.009366283
5	0x3c86b141	0.016441943
6	0xbd1d8bc6	-0.038463376
7	0xbccdc678	-0.025119051
8	0x3c465821	0.0121059725
9	0xbbd54bee	-0.0065092957
10	0x3c0fbb6d	0.008772713
11	0x3c5108f4	0.012758482
12	0xbc5f5c1d	-0.013632801
13	0xbc34a4f1	-0.011025653
14	0xbc909b4f	-0.017652182
15	0xbc01b5b0	-0.007916853
16	0x3a612286	0.0008588213
17	0xbb499d19	-0.0030763804
18	0xbca57bbe	-0.020200606
19	0x3c5e7688	0.013578065
20	0xbc99e74d	-0.01878705
21	0x3b39cea0	0.0028351918
22	0xbbfc2cfd	-0.0076957927
23	0xbc87bff0	-0.016571015
24	0xbc103b29	-0.008803167
25	0x3c9cbe10	0.019133598
26	0xb90413ae	-0.00012595832
27	0xba9e2793	-0.0012066237
28	0xbc64d335	-0.013966371
29	0xbc44b05e	-0.01200494
30	0x3c53ac23	0.012919459
31	0x3bf81146	0.0075704185

encoder.net.3.weight f4 [64, 32, 3, 3]
0	0x393ff128	0.00018305017
1	0x3c51a268	0.012795068
2	0xbb9d53a6	-0.0048012314
3	0xbcaf1f9f	-0.021377383
4	0xbd0874a9	-0.03331438
5	0x3d8a19b6	0.06743185
6	0x3ba5a88c	0.0050554927
7	0x3cb92135	0.022598842
8	0x3d049a62	0.032373793
9	0xbb69032d	-0.0035554871
10	0x3d169d76	0.03677126
11	0x3d4d9ed9	0.050200317
12	0xbadbd934	-0.0016773106
13	0x3c9dd167	0.01926489
14	0xbc4048af	-0.011736079
15	0xbc1829e0	-0.0092873275
16	0x3cd34661	0.025790395
17	0xbbcae806	-0.00619221
18	0xbb984d78	-0.004647907
19	0x3d2ef9aa	0.042718567
20	0xbce86bef	-0.02837178
21	0x3c2c8fb5	0.010532309
22	0x3d8172ee	0.06320749
23	0xba6d2cf1	-0.00090475293
24	0x3c37a8d2	0.0112096835
25	0xbc5d49f1	-0.013506399
26	0xbc1a1c9b	-0.009406234
27	0xbd4e6f21	-0.05039895
28	0x3d493ea8	0.04913202
29	0xbd17ac7b	-0.037029725
30	0x3d5eaa19	0.054361437
31	0x3c8c012c	0.017090403
32	0x3d1bfcd5	0.038082916
33	0xbd4babeb	-0.0497245
34	0x3cbfef2c	0.023429476
35	0xbca7b513	-0.020472085
36	0xbd465331	-0.04841918
37	0x3b23883a	0.0024953024
38	0xbd10d7dd	-0.035362113
39	0xbccc42ae	-0.02493414
40	0x3c75e78b	0.015008817
41	0xbcc1f156	-0.023674648
42	0x3d0bff72	0.03417916
43	0x3d1a82a9	0.037722263
44	0xbd26cb20	-0.04072106
45	0x3b9b83d5	0.00474594
46	0xbc212375	-0.009835114
47	0xbc0a7e0d	-0.008452904
48	0x3d0f78b5	0.035027225
49	0x3d2d3f2d	0.042296577
50	0x3c8e6d8b	0.017386219
51	0xb741d1e0	-1.1552562e-05
52	0x3c8b8c02	0.017034534
53	0x3c3aa759	0.011392438
54	0xbc0a6f27	-0.008449352
55	0xba4f25f9	-0.00079020817
56	0x3d6d1e11	0.05789
57	0x3d89dcf0	0.067315936
58	0x3ce8cb54	0.028417267
59	0x3d921963	0.071337484
60	0x3c8cd390	0.017190725
61	0x3cc1a51f	0.023638306
62	0xbae41add	-0.0017403025
63	0xbca0e6a4	-0.019641228
64	0x3d4db749	0.050223622
65	0x3c2daad0	0.010599807
66	0xbd44b8e5	-0.04802789
67	0x3c31327d	0.01081526
68	0x3c46d00a	0.012134561
69	0x3cecf4d4	0.028925337
70	0xbc91f0ba	-0.017814983
71	0x3aba71cb	0.0014224587
72	0xbd799a9a	-0.060938455
73	0xbc83b95f	-0.016079603
74	0x3c723db7	0.014785222
75	0xbc06459e	-0.008195309
76	0xbc0b271e	-0.008493213
77	0x3d1df338	0.03856203
78	0xbd625ec6	-0.055266164
79	0x3c0a63f3	0.008446681
80	0xbc46b0e3	-0.012127134
81	0x3c99a053	0.018753206
82	0x3cf2fd47	0.029661788
83	0xbd793dc2	-0.060849912
84	0x3d1231f2	0.035692163
85	0xbcc02dfe	-0.02345943
86	0xbce0598a	-0.027386446
87	0xbc525a49	-0.0128389085
88	0xbd77ab0c	-0.060465857
89	0xbd82b682	-0.06382467
90	0x39f69b15	0.00047036321
91	0x3ca87ab9	0.020566331
92	0xbd5b0aaa	-0.053476967
93	0xbcdb7ddb	-0.026793411
94	0x3d7cac14	0.061687544
95	0xbd231acb	-0.039820474
96	0xbd87aad6	-0.06624381
97	0x3c22f465	0.0099459635
98	0x3b746a2b	0.0037294726
99	0x3cd7fd95	0.026366035
100	0x3cb2d0be	0.021828052
101	0xbd308780	-0.043097973
102	0x3c91a550	0.017779022
103	0xbd10610f	-0.035248812
104	0x3c097fc1	0.008392275
105	0x3ba682c8	0.0050815083
106	0xbd5d9c5a	-0.054104187
107	0x3d613892	0.05498559
108	0x3c82f818	0.015987441
109	0x3bf44ed6	0.007455687
110	0x3d3c09fc	0.04590796
111	0x3c8351d9	0.016030239
112	0xbda485dc	-0.08033344
113	0xbd750b3b	-0.059825163
114	0x3ccc1287	0.024911178
115	0xbbe05890	-0.006846495
116	0xbc9e760f	-0.019343404
117	0x3d08c4a6	0.033390664
118	0x3d45723f	0.048204657
119	0x3d39a2fb	0.045321446
120	0xbade85a4	-0.0016977084
121	0x3d42835c	0.047488555
122	0xbc1245bf	-0.008927762
123	0xbd0c4b84	-0.034251705
124	0x3b032d02	0.002001584
125	0x3d0aa8fd	0.033852566
126	0x3d0f5524	0.034993306
127	0xbcf4b2d6	-0.029870432
128	0x3ca77b3a	0.020444501
129	0x3bcb9ae4	0.0062135328
130	0xbc0f7f1c	-0.008758333
131	0x3c82747c	0.015924685
132	0x3bbbe051	0.0057335277
133	0x3c6a2ba1	0.0142926285
134	0xbd02689c	-0.031838045
135	0xbc6b54bc	-0.014363464
136	0x3d25de01	0.040494923
137	0xbd3765a0	-0.04477465
138	0x3d27f333	0.041003417
139	0x3c35a369	0.011086323
140	0xbcaa30d6	-0.02077524
141	0x3d1b83ac	0.03796737
142	0x3c2b4e83	0.01045573
143	0xbd123442	-0.03569437
144	0x3c3ae3d6	0.011406859
145	0x3cff1bb9	0.031141149
146	0xbcb45f02	-0.02201796
147	0xbccbccad	-0.02487787
148	0xbcca1c2c	-0.024671637
149	0x3ccdd469	0.0251257
150	0x3c438111	0.011932627
151	0x3ca7136e	0.020395007
152	0xbd6b9a8c	-0.057520434
153	0x3d1aecde	0.03782355
154	0x3cc3085d	0.023807699
155	0x3b654029	0.003498087
156	0x3d396c23	0.045269143
157	0x3d2d1b41	0.04226232
158	0xbccde89d	-0.025135333
159	0xbd744140	-0.05963254
160	0x3d3b2f2c	0.045699283
161	0xbd4a538f	-0.049396094
162	0xbc784614	-0.015153427
163	0xbcdbc4cd	-0.02682724
164	0x3cd99104	0.026558407
165	0x3d78d548	0.060750276
166	0x3cabb108	0.020958439
167	0x3d9bc8db	0.076066695
168	0xbb905634	-0.0044048075
169	0xbc344681	-0.011003138
170	0x3c1247e6	0.008928275
171	0xbc7eda23	-0.0155549375
172	0xbd78cd7e	-0.060742848
173	0xbc8318cd	-0.016003037
174	0x3d6cba36	0.057794772
175	0xbcc358dd	-0.023846084
176	0xbc459098	-0.0120584
177	0xbd00fa6d	-0.031488825
178	0xbd8b33a0	-0.06796956
179	0xbd0aa887	-0.033852126
180	0xbc6f3592	-0.0146001745
181	0x3c73d36f	0.014881953
182	0xbd588d0c	-0.052868888
183	0x3d2fed28	0.04295078
184	0xbd1b68e4	-0.03794183
185	0xbc308c0f	-0.01077558
186	0x3d255e4a	0.040373124
187	0xbd4d18ee	-0.050072603
188	0x3d02eaa9	0.03196207
189	0x3ccfefd8	0.025382921
190	0xbc92e60f	-0.017931966
191	0xbd40632b	-0.046969574
192	0x3ccad603	0.024760252
193	0xbcc1568c	-0.02360084
194	0x3c71ed20	0.014766008
195	0x3bb96551	0.00565783
196	0x3d10b7b7	0.035331454
197	0xbc677f3b	-0.014129455
198	0xbd3de5db	-0.046361785
199	0x3bc383dc	0.0059666466
200	0x3c8bb994	0.017056264
201	0x3d89359e	0.0669968
202	0x3d7e8960	0.06214273
203	0x3d32db5a	0.04366622
204	0xbc9c48bc	-0.019077651
205	0x3d5bf9ac	0.053704903
206	0x3d2b35de	0.04179942
207	0x3cb22c53	0.021749651
208	0xbc46f892	-0.012144225
209	0x3d1d15c7	0.038350847
210	0xbc8e786f	-0.017391412
211	0xbc87d930	-0.016583055
212	0x3c392484	0.01130021
213	0xbcbd09f7	-0.02307604
214	0x3bf30906	0.007416847
215	0x3d64e541	0.055882696
216	0xbcfa11c2	-0.030526046
217	0xbbcbae2f	-0.0062158327
218	0xbd05bfea	-0.032653727
219	0x3c2ca968	0.0105384365
220	0x3d879cec	0.06621727
221	0x3b43d54e	0.0029881778
222	0xb9e22966	-0.00043136923
223	0x3d5c360b	0.053762477
224	0x3c4fe46d	0.012688738
225	0xbd616f4f	-0.055037793
226	0xbd12d9f8	-0.035852402
227	0xbbaa26ec	-0.005192628
228	0x3ceb5271	0.028725835
229	0xbc96d49b	-0.018411925
230	0xbbebd680	-0.0071972013
231	0x3ccc93b2	0.02497277
232	0xbcc35f21	-0.023849072
233	0x3d11c635	0.035589416
234	0xbc30e09f	-0.010795741
235	0xbc64a655	-0.013955672
236	0x3cd10e27	0.025519444
237	0x3d364d2e	0.044507198
238	0x3d32d867	0.04366341
239	0xbd45e5c7	-0.048314836
240	0x3d4054bd	0.046955813
241	0x3cee371d	0.029079014
242	0x3d096fa1	0.033553723
243	0x3cb71867	0.022350503
244	0xbd41dde4	-0.047330752
245	0xbcaf9f44	-0.021438248
246	0x3d20c8fe	0.03925418
247	0x3bdb3364	0.006689476
248	0x3d5eb569	0.054372225
249	0x3b9fcf35	0.004876996
250	0x3d45bfe4	0.048278704
251	0xbc9c73c8	-0.019098178
252	0xbcf5d173	-0.0300071
253	0xbd035c5b	-0.0320705
254	0x3d15392c	0.036431476
255	0x3c0be53e	0.008538542

encoder.net.3.bias f4 [64]
0	0x3bd7e233	0.0065882443
1	0xbbc5711b	-0.006025446
2	0x3af26192	0.0018492213
3	0x3af04f65	0.0018334208
4	0x3acac96f	0.0015471409
5	0xbb849e8e	-0.0040472215
6	0x3aa3b47e	0.0012489704
7	0xbbc1c30a	-0.005913143
8	0xbb810548	-0.003937397
9	0x3bb3bd1c	0.00548519
10	0xbbc73935	-0.0060798177
11	0xbc0d3922	-0.008619579
12	0xbb86aa85	-0.004109683
13	0x3c048d11	0.0080902735
14	0x3a630432	0.0008659988
15	0xbb7806b2	-0.0037845788
16	0xbbfceaf9	-0.0077184406
17	0xbafafbcf	-0.0019148531
18	0x3a3e8cba	0.00072688947
19	0x3a03970b	0.00050197606
20	0xba54cad0	-0.00081173796
21	0x3b1b2b6b	0.0023677002
22	0x3be090dc	0.006853206
23	0x3a8e0307	0.0010834642
24	0x3b345b22	0.002752014
25	0x3800c702	3.070292e-05
26	0x38dcba02	0.00010525064
27	0xbc198216	-0.009369394
28	0x3bf08239	0.0073397425
29	0x3b8663d1	0.0041012545
30	0xbbcb12b0	-0.006197296
31	0x3bdf9051	0.006822624
32	0xbab5c5a4	-0.0013868106
33	0x3aab4734	0.0013067485
34	0xbb083717	-0.002078479
35	0xbc4f48c4	-0.012651626
36	0xbacd812a	-0.0015678753
37	0x3ada725e	0.0016666164
38	0x39da1b0e	0.00041600358
39	0x3b98d18a	0.004663651
40	0x3aab50a5	0.0013070299
41	0xb949fcd1	-0.00019263035
42	0xbb3140b3	-0.002704662
43	0x3c11aa16	0.008890649
44	0x3a04792e	0.00050534576
45	0x3b597e5f	0.0033186895
46	0x3c3a8734	0.011384774
47	0xbb8a160c	-0.004214054
48	0x3b68e863	0.0035538904
49	0x39ff5ff7	0.0004870889
50	0x3c027449	0.007962295
51	0xbb20f0d5	-0.002455761
52	0xbb10a684	-0.0022071907
53	0xbb1be96e	-0.0023790258
54	0xbbb3128e	-0.0054648584
55	0x3bcdb8d8	0.0062781386
56	0xbbcda3c8	-0.0062756278
57	0x3bc4f396	0.006010483
58	0xbbc771b8	-0.0060865544
59	0x3b233cd8	0.0024908092
60	0xbbc8af07	-0.0061243805
61	0xba977288	-0.0011554519
62	0xbb7f43de	-0.0038950364
63	0x3c1b3de6	0.009475207

encoder.net.4.weight f4 [64]
0	0x3f77337c	0.96562934
1	0x3f791ce6	0.9730972
2	0x3f747397	0.95488876
3	0x3f839ab6	1.0281589
4	0x3f7f2491	0.9966517
5	0x3f75d2fc	0.9602506
6	0x3f7d5b94	0.9896786
7	0x3f747264	0.95487046
8	0x3f71b7f8	0.9442134
9	0x3f74d7d7	0.95641845
10	0x3f852784	1.0402684
11	0x3f7347d0	0.9503145
12	0x3f80e084	1.0068517
13	0x3f80b714	1.0055871
14	0x3f7ca952	0.9869586
15	0x3f773a5a	0.9657341
16	0x3f798cfe	0.9748076
17	0x3f761231	0.9612151
18	0x3f7446a0	0.95420265
19	0x3f84c51d	1.0372654
20	0x3f7c1331	0.98466784
21	0x3f7e91d6	0.9944128
22	0x3f827287	1.0191201
23	0x3f70886e	0.93958175
24	0x3f73fb5a	0.9530541
25	0x3f74cb02	0.95622265
26	0x3f7a2b80	0.97722626
27	0x3f7766e5	0.9664138
28	0x3f7efa27	0.9960045
29	0x3f80b5f2	1.0055525
30	0x3f864cf9	1.049224
31	0x3f805546	1.0026023
32	0x3f7a156f	0.97688955
33	0x3f78568b	0.97007054
34	0x3f77ff2c	0.96873736
35	0x3f8334fd	1.0250546
36	0x3f7ca2fd	0.986862
37	0x3f8674c3	1.0504383
38	0x3f7a21f2	0.97708046
39	0x3f7694b3	0.96320647
40	0x3f8722ba	1.0557473
41	0x3f74f3cd	0.9568451
42	0x3f766e8a	0.9626242
43	0x3f85ba16	1.0447414
44	0x3f7816a7	0.96909565
45	0x3f79f3aa	0.97637427
46	0x3f76c446	0.9639324
47	0x3f788916	0.97084177
48	0x3f7d1e23	0.9887411
49	0x3f731ac5	0.9496272
50	0x3f73f589	0.9529653
51	0x3f7a2703	0.9771578
52	0x3f7b5c26	0.9818748
53	0x3f76d490	0.96418095
54	0x3f793d37	0.9735903
55	0x3f7b2f3b	0.9811894
56	0x3f74d2f4	0.9563439
57	0x3f7224da	0.9458748
58	0x3f7c0257	0.9844107
59	0x3f7cdf62	0.98778355
60	0x3f75586c	0.95838046
61	0x3f837fd3	1.0273384
62	0x3f781ccd	0.96918947
63	0x3f7a0fbe	0.9768027

encoder.net.4.bias f4 [64]
0	0xbd0d7208	-0.034532577
1	0x3a53914b	0.00080706616
2	0x3c873ede	0.01650947
3	0x3d409360	0.047015548
4	0x3ca3cce2	0.019995157
5	0x3ca149a5	0.019688437
6	0x3d34b1ed	0.044114996
7	0xbb191909	-0.002336087
8	0xbd59a06f	-0.053131517
9	0xb78f53f5	-1.7086024e-05
10	0x3c118411	0.008881585
11	0xbc053430	-0.008130118
12	0x3b825ebe	0.0039785793
13	0x3d0b87e9	0.03406516
14	0xbc7217e2	-0.014776202
15	0x3c28a68a	0.010293612
16	0xbbeb718e	-0.0071851676
17	0xbbc31a39	-0.0059540537
18	0x3d05189a	0.032494165
19	0x3b4e10cd	0.003144312
20	0xbd76fbe6	-0.060298823
21	0x3cd2d534	0.025736429
22	0xbc9ed9fc	-0.019391052
23	0x3bd047d4	0.006356219
24	0xbcd03e0f	-0.025420217
25	0xbd248c98	-0.040173143
26	0xbcc3600f	-0.023849515
27	0x3c8a7c9d	0.016905123
28	0xbd6b6ebe	-0.05747866
29	0x3d2980c4	0.041382566
30	0x3ce8cf3f	0.028419135
31	0x3cdded39	0.027090656
32	0x3c94abf5	0.018148402
33	0xbc12815d	-0.008941975
34	0xbc43cb4f	-0.011950328
35	0x3d131c2e	0.035915546
36	0x3cbedb2b	0.023297867
37	0x3d29d6b4	0.041464522
38	0xbcecee3a	-0.028922189
39	0xbcad5256	-0.021157425
40	0x3c595264	0.013264272
41	0xbd35371f	-0.04424202
42	0xbd4fedbf	-0.05076384
43	0x3d1e4524	0.038640156
44	0xbd70e7b6	-0.058814727
45	0xbcd4ea3a	-0.025990594
46	0xbca82649	-0.020526068
47	0xbcb813bc	-0.022470348
48	0xbc06d136	-0.008228591
49	0xbb83283c	-0.004002599
50	0xbd5dee9c	-0.054182634
51	0x3be67d97	0.0070340144
52	0xbc4a807d	-0.012359736
53	0xbd2c915b	-0.04213081
54	0xbb391774	-0.002824274
55	0xbd2040ac	-0.039124176
56	0xbc56ff65	-0.013122414
57	0xbc90ca1c	-0.017674498
58	0x3b62779a	0.0034556151
59	0x3bb54984	0.0055324454
60	0xbcbf72d3	-0.023370182
61	0x3d37b97d	0.04485463
62	0x3ae71308	0.0017629573
63	0x3c3b3d7a	0.011428231

encoder.net.6.weight f4 [128, 64, 3, 3]
0	0x3c092059	0.008369529
1	0xbcb0e03f	-0.021591304
2	0xbcb826cb	-0.022479435
3	0xbcbd7bfa	-0.023130406
4	0x3c29363f	0.010327875
5	0xbd217aea	-0.03942386
6	0x3baf0aad	0.005341849
7	0xbc97fa90	-0.018552095
8	0x3aaa889a	0.0013010681
9	0xbc8f1f1a	-0.017470885
10	0x3bc7bacc	0.006095266
11	0xbd0f33e8	-0.03496161
12	0x3cabbad3	0.020963108
13	0x3d3390a1	0.0438391
14	0x3cc2de49	0.023787634
15	0xbcac8321	-0.02105862
16	0xbac410cb	-0.0014958618
17	0x3bd0f3a9	0.006376703
18	0x3c4d6582	0.012536408
19	0xbc966fa5	-0.018363783
20	0x3bda27f3	0.0066575943
21	0xb9b81c87	-0.0003511647
22	0xbcc7088c	-0.024296068
23	0x3bb34a1c	0.005471481
24	0x3b45bd1d	0.0030172535
25	0xbc6b922f	-0.014378115
26	0x3b8661aa	0.004100998
27	0x3b0abf9d	0.002117134
28	0xbc048440	-0.0080881715
29	0xbbe7b70e	-0.0070713824
30	0x3cd926bc	0.026507728
31	0xbced3859	-0.028957533
32	0xbc31e658	-0.010858141
33	0xbd5a491c	-0.05329238
34	0xbd6ef841	-0.058342222
35	0xbd37418d	-0.04474025
36	0xbc263cd0	-0.010146335
37	0x3d451b91	0.048121992
38	0x3d032d9f	0.03202593
39	0x3ce27ab3	0.027646398
40	0xbb3a3c15	-0.002841716
41	0x3c00fd00	0.00787282
42	0xbd05092e	-0.032479458
43	0x3d33051a	0.043706037
44	0x3c9103c9	0.017702
45	0x3c92b3f3	0.017908072
46	0xbbb213b1	-0.0054344763
47	0x3c66ea0a	0.014093885
48	0xbd3c5753	-0.045981716
49	0xbcce9112	-0.02521566
50	0x3c222c3e	0.0098982435
51	0x3b70ceb8	0.0036744308
52	0x3bdcb394	0.0067352746
53	0xbb71c624	-0.0036891783
54	0xbc9466c5	-0.01811541
55	0xbcb511cd	-0.022103215
56	0x3d0fa1d5	0.035066444
57	0xbc997ffe	-0.01873779
58	0xbd0c6ec0	-0.034285307
59	0xbcb6d46a	-0.022318084
60	0x3c4bdca7	0.012442744
61	0x3c1fab74	0.009745467
62	0x39a01e6b	0.0003054024
63	0x3ad66364	0.0016356525
64	0x3ca54949	0.020176547
65	0x3c274df8	0.01021146
66	0xbce73721	-0.02822453
67	0xbcf48fb5	-0.029853681
68	0xbc87a6c3	-0.01655901
69	0xbcb246dd	-0.021762306
70	0x3bd4071c	0.006470574
71	0xbc9083b8	-0.017640933
72	0xbc7b8da5	-0.015353595
73	0x3d09feb5	0.033690173
74	0x3ba9ec48	0.0051856376
75	0x3cc5f0e8	0.024162725
76	0xbcfc1e0e	-0.03077605
77	0x3ca8c1d6	0.02060024
78	0x3c584666	0.013200378
79	0xbd2ad681	-0.041708473
80	0x3c930ca9	0.017950373
81	0x3c8ae968	0.016957
82	0xbd250ec6	-0.040297292
83	0x3cbdf919	0.023190068
84	0xbcd709f8	-0.02624987
85	0x3aa94f5b	0.0012917327
86	0x3c2ae1b8	0.010429792
87	0xbcf9b8e2	-0.030483667
88	0xbd0f2460	-0.0349468
89	0x3c867f37	0.016418083
90	0xbc980ca9	-0.018560724
91	0x3d226006	0.039642356
92	0x3ceac300	0.028657436
93	0xbc8ea55c	-0.017412834
94	0x3c22d2d1	0.009937958
95	0x3d05b219	0.03264055
96	0xbc6e2299	-0.014534616
97	0x3d0e4456	0.03473314
98	0x3cb9c53e	0.02267706
99	0x3c1cc8ae	0.00956933
100	0x3b64c471	0.0034907127
101	0x3c5f6954	0.013635952
102	0x3b598073	0.0033188134
103	0xbbefd0ab	-0.0073185763
104	0x3c8d9399	0.017282294
105	0xbb6c3107	-0.0036039965
106	0x3c703ea8	0.014663376
107	0xbcad52d0	-0.021157652
108	0x3beb5d9d	0.0071827904
109	0xbd4795c1	-0.0487268
110	0x3d5650e9	0.052323256
111	0xbd046e63	-0.032331835
112	0xbc9916d3	-0.018687641
113	0xbcfc4bf6	-0.03079794
114	0x3d1a3bd3	0.03765471
115	0x3ca62e39	0.020285713
116	0xba922030	-0.0011148509
117	0xbc4979d3	-0.012297112
118	0xbcd17d66	-0.02557249
119	0x3c424195	0.011856456
120	0x3b8823c3	0.0041546538
121	0xbcca3e3a	-0.024687875
122	0xba6774f6	-0.0008829379
123	0xbd52ef6c	-0.05149786
124	0xbd842530	-0.064524055
125	0xbd1acbf7	-0.037792172
126	0x3ce81321	0.028329434
127	0x3d7fc2b0	0.062441528
128	0x3b21c157	0.002468189
129	0x3cfbac28	0.030721739
130	0x3d831cc7	0.06401973
131	0xbb956b1d	-0.004559888
132	0xbcb9f746	-0.022700917
133	0x3d9c8de7	0.07644253
134	0x3b1c9147	0.0023890303
135	0xbc8a3f23	-0.016875809
136	0xbcb20f48	-0.021735802
137	0xbc4076fa	-0.011747116
138	0x3c69c2a7	0.0142676
139	0xbce6bcc4	-0.028166182
140	0xbb96e4f0	-0.004604928
141	0x3bbb3980	0.0057136416
142	0xbd066518	-0.032811254
143	0x3d1e6994	0.038674906
144	0xbca743c8	-0.020418063
145	0xbcdbeee2	-0.026847307
146	0xbcd09146	-0.025459897
147	0xbba1e6f1	-0.0049408604
148	0xbc50eb9c	-0.012751486
149	0xbcacfe40	-0.02111733
150	0xbc0f4c78	-0.008746259
151	0xbc09b27a	-0.008404369
152	0x3d3743a0	0.044742227
153	0xbd18d7e6	-0.03731527
154	0x3d31ac5f	0.043377277
155	0x3cbc43b5	0.022981504
156	0xbcbf4e26	-0.023352694
157	0x3d494b95	0.049144346
158	0xbd150542	-0.036381967
159	0xbd400c5c	-0.046886787
160	0x3cb61755	0.022227922
161	0xbbbef3b6	-0.0058273925
162	0x3caf04f2	0.021364663
163	0xbd0ad40d	-0.033893634
164	0x3c2bfd29	0.01049737
165	0x3c96498e	0.01834562
166	0xbd156013	-0.036468577
167	0x3d07a602	0.0331173
168	0xbc450039	-0.012023979
169	0xbc94dbc3	-0.018171197
170	0x3d0121f5	0.031526525
171	0x3c40296e	0.011728628
172	0x3c6eb202	0.014568808
173	0x3d07ae6b	0.033125322
174	0xbc318565	-0.010835026
175	0xbd0c2c9f	-0.03422224
176	0xbbbdc4c3	-0.005791278
177	0xbd5bf8cf	-0.05370408
178	0xbcf9f3d8	-0.030511782
179	0xbc8cf45b	-0.017206362
180	0xbcc094a8	-0.023508385
181	0xbc0b98b5	-0.008520295
182	0x3bf470ea	0.0074597495
183	0xbd1d8ce6	-0.03846445
184	0xbc94c927	-0.018162323
185	0xbcf74723	-0.030185288
186	0xbd1d2020	-0.038360715
187	0x3cbfa506	0.023394119
188	0xbcdd995e	-0.02705067
189	0xbbcb8553	-0.006210962
190	0xbd1f44b9	-0.0388839
191	0x3c8a441e	0.016878184
192	0xba6d302a	-0.00090480095
193	0xbd17c16a	-0.03704969
194	0x3d51646e	0.051121168
195	0xbc97c712	-0.018527541
196	0xbcb42082	-0.021988157
197	0x3d0233ee	0.031787805
198	0xbd2e91ca	-0.042619504
199	0x3d08a799	0.03336296
200	0xbbbf9d50	-0.0058476105
201	0x3cc2e4cc	0.02379074
202	0x3ccd638d	0.025071884
203	0x3cae0e80	0.021247149
204	0xbd07a214	-0.033113554
205	0x3d11f015	0.03562935
206	0xbce624b6	-0.028093677
207	0xbcc1c9b8	-0.023655757
208	0xbbdd9cb3	-0.006763065
209	0xbc49ff0d	-0.012328875
210	0x3bc25b68	0.0059313066
211	0xbcb2ccea	-0.021826226
212	0xbc9c6ce4	-0.019094892
213	0x3cb232e8	0.02175279
214	0xbcc56796	-0.024097245
215	0xbc8eb3fb	-0.017419806
216	0x3c001a31	0.0078187445
217	0x3cce64e9	0.025194602
218	0xbc5c4b94	-0.013445754
219	0x3c072815	0.008249302
220	0xbcdc2f1e	-0.026877936
221	0xbcd021e4	-0.025406785
222	0x3c6d441c	0.014481571
223	0x3ceed855	0.02915589
224	0x3c1005a3	0.008790406
225	0xbce88b4e	-0.028386738
226	0xbcec592b	-0.028851112
227	0x3c9f4380	0.019441366
228	0xbcb1415e	-0.021637615
229	0xbcb7aa3d	-0.022420043
230	0xbcaed218	-0.021340415
231	0xbd3250dd	-0.04353415
232	0xbb04879d	-0.0020222433
233	0xbcdf27d3	-0.02724067
234	0x3cf45574	0.029825903
235	0x3bc83e6c	0.006110957
236	0xbc34b68f	-0.0110298535
237	0xbd334056	-0.043762527
238	0x3bc57289	0.0060256165
239	0x3ca25d5c	0.019819908
240	0xbd587f75	-0.052855927
241	0x3d0b989e	0.034081094
242	0x3ca9f20d	0.020745302
243	0xbd4efc35	-0.050533492
244	0x3bc31179	0.0059530106
245	0xbcadabdc	-0.021200113
246	0x3b2f0f72	0.0026712087
247	0x3c7e4006	0.015518194
248	0xbca4459c	-0.020052724
249	0xbd0daef8	-0.03459069
250	0x3bfe5929	0.0077620936
251	0xbb8af00e	-0.0042400425
252	0xbd26bb39	-0.040705893
253	0x3c537179	0.012905472
254	0xbc17da13	-0.009268302
255	0xbd28c98b	-0.04120783

encoder.net.6.bias f4 [128]
0	0xbad9f0f9	-0.0016627602
1	0xba856bd1	-0.0010179227
2	0xba615a28	-0.0008596503
3	0x389cfe4e	7.4860276e-05
4	0x3a2f3300	0.000668332
5	0xbac4dd3f	-0.001501955
6	0x3a8987be	0.0010492725
7	0xbac65b86	-0.0015133477
8	0xbabe9f90	-0.0014543403
9	0xba82ab55	-0.0009969274
10	0xb99fbbb1	-0.00030466684
11	0x3ab0bade	0.0013483425
12	0xb921040f	-0.00015355668
13	0xba3cfdf2	-0.00072094717
14	0xba075777	-0.00051628746
15	0xbab09f74	-0.0013475255
16	0x3a42c43b	0.00074297533
17	0xb9615fb2	-0.00021493321
18	0xb98c7ddf	-0.00026796662
19	0x3a8816ce	0.0010382773
20	0x39860b11	0.00025566717
21	0xba42f0e4	-0.0007436408
22	0xbb3626eb	-0.0027794193
23	0x3a080150	0.0005188184
24	0x39abdcf9	0.000327803
25	0x3a9678f3	0.0011480137
26	0xbaf3c9e1	-0.0018599593
27	0xba83782b	-0.001003032
28	0xba5259b2	-0.000802423
29	0x3a95b5ec	0.0011422015
30	0xba6f054b	-0.0009117915
31	0xb9c051a3	-0.00036681918
32	0xbaece6ca	-0.0018074152
33	0x3a8bf976	0.0010679204
34	0x39881775	0.00025957418
35	0x3910ef77	0.00013822118
36	0xba0dbce1	-0.00054068683
37	0xb9f8ad00	-0.0004743114
38	0x3a82c984	0.0009978269
39	0xba3ddb0d	-0.0007242419
40	0xbaef0d51	-0.0018238222
41	0xb9498028	-0.00019216596
42	0x39e44be0	0.0004354408
43	0xba82d813	-0.0009982608
44	0xba019c02	-0.00049442064
45	0xb7e97677	-2.7830929e-05
46	0xba4c29e6	-0.0007788226
47	0x3a67fa7b	0.0008849275
48	0xba94644a	-0.0011321392
49	0xbad5e47f	-0.0016318707
50	0x38939169	7.036591e-05
51	0x3a323295	0.00067976984
52	0x3a0c27c6	0.0005346503
53	0xba0764f8	-0.0005164887
54	0xba85390f	-0.00101641
55	0xb9d052a3	-0.0003973442
56	0xba55e18c	-0.0008158914
57	0x3879c866	5.955286e-05
58	0xb8305a5f	-4.2045835e-05
59	0xb4cb48a3	-3.7864547e-07
60	0x38aac599	8.143037e-05
61	0xb9d41912	-0.0004045447
62	0x3ad11a16	0.0015953209
63	0xb948e525	-0.0001915885
64	0x3b157999	0.0022808074
65	0x392ed4f5	0.00016673266
66	0xba6d50e1	-0.00090528844
67	0xb9689550	-0.00022180867
68	0x3af10132	0.0018387197
69	0x3a940b6c	0.0011294908
70	0x3809045e	3.2667413e-05
71	0xbb07f03e	-0.002074256
72	0x3abf054a	0.001457372
73	0xba12f4ff	-0.0005605965
74	0x38992bdf	7.30378e-05
75	0xba0bb8a3	-0.0005329942
76	0xb8f373c8	-0.00011608709
77	0xba2721d1	-0.00063755835
78	0x3951bdd6	0.00020002513
79	0x3954e922	0.00020304744
80	0x3a8d66c3	0.0010788072
81	0xbb2ed6ec	-0.0026678396
82	0xb9f1450a	-0.0004601854
83	0x3a3fbbd2	0.0007314059
84	0xb98571ac	-0.0002545243
85	0xba004412	-0.0004892956
86	0xb9070ae6	-0.00012878663
87	0xba0015c7	-0.00048860576
88	0x37cfdbcc	2.4778674e-05
89	0x3a5138f0	0.00079812016
90	0xb846511b	-4.7282414e-05
91	0xb926e370	-0.0001591572
92	0x3af717e0	0.001885172
93	0xb9e6a664	-0.0004399299
94	0xb9dc0c24	-0.00041970715
95	0xb8fb37c7	-0.00011979002
96	0x3a62f5ab	0.0008657823
97	0x39a577d8	0.00031560543
98	0x3a79a197	0.0009522675
99	0x3863afea	5.428485e-05
100	0x3aa092eb	0.0012250816
101	0xbab53a1c	-0.0013826522
102	0x39235447	0.00015576287
103	0x3a8796a5	0.0010344578
104	0xb92c7fcd	-0.00016450808
105	0xb9c6a7f1	-0.0003789063
106	0xb913d495	-0.00014098205
107	0x3a078610	0.0005169818
108	0xbaa2a8da	-0.0012409941
109	0x3a9e6563	0.0012084659
110	0xba51283a	-0.00079787115
111	0xb92598af	-0.00015792505
112	0xb993a46b	-0.00028160526
113	0x387d51f2	6.0396218e-05
114	0x39a025aa	0.0003054564
115	0xb9de8ec4	-0.00042449508
116	0x3b17daaa	0.0023171105
117	0x3a3c954d	0.00071938784
118	0x3aea49a7	0.0017874733
119	0xba19ac05	-0.000586212
120	0x3a12b528	0.00055964524
121	0x3a745fe4	0.000932215
122	0xba9fa7a1	-0.0012180695
123	0x39d09caf	0.0003978959
124	0xba7422fb	-0.0009313074
125	0x3a9ef862	0.0012128467
126	0x39dc0571	0.00041965724
127	0x391ab135	0.00014752599

encoder.net.7.weight f4 [128]
0	0x3f823448	1.0172205
1	0x3f7f6a60	0.9977169
2	0x3f806cd8	1.0033216
3	0x3f7c9862	0.9867002
4	0x3f7e243e	0.9927405
5	0x3f7d2e1d	0.9889849
6	0x3f84f0fd	1.0386044
7	0x3f7b492e	0.9815854
8	0x3f7f6c12	0.9977428
9	0x3f7d128a	0.98856413
10	0x3f7d55b8	0.9895892
11	0x3f7c1bc2	0.98479855
12	0x3f8011b1	1.0005399
13	0x3f80d039	1.0063545
14	0x3f7d3376	0.9890665
15	0x3f82936a	1.0201237
16	0x3f7fb9d3	0.9989292
17	0x3f7e74e0	0.9939709
18	0x3f7daa25	0.99087745
19	0x3f7ce875	0.987922
20	0x3f7e6a72	0.9938117
21	0x3f7f9564	0.99837327
22	0x3f80d0d7	1.0063733
23	0x3f7d1f3e	0.98875797
24	0x3f7da1f4	0.99075246
25	0x3f7eee8d	0.9958275
26	0x3f7e5d3e	0.99361026
27	0x3f7bcd4f	0.9836015
28	0x3f7daf22	0.99095356
29	0x3f7f575f	0.9974269
30	0x3f781530	0.9690733
31	0x3f7e6de2	0.9938642
32	0x3f7d7019	0.9899917
33	0x3f7d03d7	0.98833984
34	0x3f7bdd68	0.98384714
35	0x3f7d3b38	0.98918486
36	0x3f7d0a93	0.9884426
37	0x3f7ac0bf	0.9795036
38	0x3f7e6062	0.9936582
39	0x3f7cd95d	0.9876917
40	0x3f7dea4a	0.9918562
41	0x3f7bc46a	0.9834658
42	0x3f78544a	0.97003615
43	0x3f7e82ee	0.9941853
44	0x3f766c44	0.9625895
45	0x3f7afaeb	0.9803912
46	0x3f780154	0.96877027
47	0x3f7edf5a	0.9955956
48	0x3f7f957e	0.9983748
49	0x3f7f5155	0.9973348
50	0x3f7cfbf3	0.98821944
51	0x3f7e0280	0.99222565
52	0x3f8266fa	1.0187676
53	0x3f78c518	0.9717574
54	0x3f7f239b	0.99663705
55	0x3f8264ff	1.0187072
56	0x3f7f006a	0.99610007
57	0x3f7a1ef8	0.97703505
58	0x3f7da9ba	0.9908711
59	0x3f7c8b8c	0.9865043
60	0x3f77e2f0	0.96830654
61	0x3f814062	1.0097773
62	0x3f7b56f4	0.98179555
63	0x3f820c8a	1.0160077
64	0x3f7e8336	0.9941896
65	0x3f7933d3	0.973447
66	0x3f7e9c1f	0.9945697
67	0x3f790ac0	0.9728203
68	0x3f79620c	0.9741523
69	0x3f7d08e4	0.9884169
70	0x3f785e84	0.9701922
71	0x3f7d96c4	0.99058175
72	0x3f7b4517	0.981523
73	0x3f7e0550	0.99226856
74	0x3f7a3f6d	0.9775303
75	0x3f7eb5a6	0.99495924
76	0x3f783e1c	0.9696977
77	0x3f7c13cf	0.98467726
78	0x3f7e58e5	0.9935439
79	0x3f79ba1a	0.97549593
80	0x3f7e85b6	0.99422777
81	0x3f7bd61e	0.9837359
82	0x3f781554	0.96907544
83	0x3f7ec647	0.995213
84	0x3f7e7509	0.9939733
85	0x3f7d7af3	0.9901573
86	0x3f7d3e64	0.98923326
87	0x3f7f3c9e	0.9970187
88	0x3f7e4be1	0.9933453
89	0x3f7a2b0e	0.97721946
90	0x3f7f2e0a	0.99679625
91	0x3f7bea2c	0.9840419
92	0x3f7adc7c	0.9799268
93	0x3f79c026	0.9755882
94	0x3f81a213	1.0127586
95	0x3f7b989e	0.9827975
96	0x3f7c1fd8	0.9848609
97	0x3f7c22ac	0.98490405
98	0x3f823791	1.0173208
99	0x3f7b511f	0.98170656
100	0x3f7eaa05	0.9947818
101	0x3f781d10	0.96919346
102	0x3f7c8bda	0.98650897
103	0x3f8066d3	1.003138
104	0x3f7e36f0	0.9930258
105	0x3f7ab754	0.97935987
106	0x3f7dddf4	0.991668
107	0x3f7abf42	0.97948086
108	0x3f7e29ad	0.9928234
109	0x3f790b47	0.9728283
110	0x3f7b9a94	0.9828274
111	0x3f7b21b3	0.98098296
112	0x3f7f74c6	0.9978756
113	0x3f7e1d7a	0.9926373
114	0x3f7dd76f	0.9915685
115	0x3f8083d6	1.0040233
116	0x3f7b521c	0.98172164
117	0x3f7f8ecf	0.99827284
118	0x3f7b1573	0.98079604
119	0x3f7c2391	0.9849177
120	0x3f7b1f62	0.9809476
121	0x3f7b0c9a	0.98066103
122	0x3f7d7e52	0.99020875
123	0x3f7f2ff9	0.99682575
124	0x3f80474f	1.0021762
125	0x3f79f4c2	0.97639096
126	0x3f7fde8d	0.9994896
127	0x3f7c59e1	0.98574644

encoder.net.7.bias f4 [128]
0	0x3ce747d1	0.028232487
1	0xbc697d67	-0.01425109
2	0xbbd455b2	-0.0064799422
3	0xbc944675	-0.018100003
4	0xbc7be547	-0.015374488
5	0xbc92eabe	-0.0179342
6	0xbd9c5900	-0.07634163
7	0xbbfb9370	-0.007677488
8	0x3b8612b8	0.004091587
9	0xbc936b53	-0.017995512
10	0xbb1cc67e	-0.0023922022
11	0xbc9fe2fd	-0.019517416
12	0xbc1ad725	-0.0094507085
13	0xb93ede15	-0.00018202544
14	0xbc94893d	-0.018131847
15	0xbd3a6fee	-0.0455169
16	0xbcddd0a4	-0.027077027
17	0xbce93e63	-0.028472131
18	0xbc0edc0d	-0.008719456
19	0xbc7ad8b4	-0.015310455
20	0xbca591bf	-0.020211099
21	0xbc855efc	-0.016280644
22	0x3b2147a3	0.002460935
23	0x3ce76252	0.028245125
24	0xbc3a7f5f	-0.011382907
25	0xbc829cfe	-0.015944
26	0xbbb42106	-0.0054971008
27	0xbc24fd77	-0.010070196
28	0xbc8e5ebb	-0.017379155
29	0x3bd4b33b	0.0064910925
30	0xbd055acb	-0.03255729
31	0xbcafd1bf	-0.02146232
32	0xbca919d6	-0.020642202
33	0xbc9af34e	-0.018914845
34	0xbbc8b48e	-0.0061250394
35	0xbc08c436	-0.008347562
36	0xbae98a28	-0.0017817663
37	0xbc20158a	-0.00977076
38	0xbc87de55	-0.016585508
39	0xbc84f0d1	-0.016228111
40	0xbc603691	-0.013684885
41	0xbcfded9e	-0.030997094
42	0xbc5ff6ca	-0.013669679
43	0xbc1721b5	-0.009224345
44	0xbceac5fe	-0.028658863
45	0xbcff6c9c	-0.031179719
46	0xbc9955f5	-0.018717745
47	0xbbbc4f69	-0.005746771
48	0xbb2ae17f	-0.0026074348
49	0xbc3b48d9	-0.011430942
50	0xbc7e8e3a	-0.015536839
51	0xbc4da381	-0.012551189
52	0x3c494d05	0.012286429
53	0xbccc7f66	-0.024963092
54	0x3a829e9f	0.0009965486
55	0x3c12c3b3	0.008957791
56	0x3bd7493d	0.00657001
57	0xbc98e0c0	-0.018661857
58	0xbd0ec663	-0.034857165
59	0xbca4a116	-0.020096343
60	0xbc8087e3	-0.015689796
61	0xbc811f24	-0.01576192
62	0xbbe72b44	-0.007054718
63	0x3d12cbc5	0.03583886
64	0xbcc208b2	-0.023685787
65	0xbcbfcb11	-0.02341226
66	0x3c81f0c7	0.015861882
67	0xbcae9d58	-0.021315262
68	0xbc5a8416	-0.013337156
69	0xbc91adf5	-0.017783144
70	0xbd48ffef	-0.049072202
71	0x3c61b480	0.013775945
72	0xbbf765df	-0.007549986
73	0xbba37243	-0.0049879863
74	0x3c4e4683	0.0125900535
75	0xbc9a2197	-0.018814845
76	0xbc53ef1a	-0.012935424
77	0x3bc3ed1d	0.005979194
78	0xbc35cd13	-0.011096257
79	0xbbcb0bab	-0.0061964593
80	0xbc8abb9c	-0.016935162
81	0xbc64f588	-0.013974555
82	0xbd1af2de	-0.037829272
83	0xbc3bfcd1	-0.01147385
84	0xbc1784b1	-0.009247945
85	0xbc1d5c29	-0.009604492
86	0xbd08cf64	-0.033400908
87	0xbc23454d	-0.009965253
88	0xbc4a9d79	-0.012366646
89	0xbc68fd3c	-0.014220532
90	0xbac67b89	-0.0015143018
91	0xbca334ec	-0.019922696
92	0xbc1e20cd	-0.009651375
93	0xbcac6c2d	-0.021047676
94	0xbca9176a	-0.020641048
95	0xbc85f63a	-0.016352762
96	0xbc9ceea7	-0.019156767
97	0xbc7c2293	-0.0153891025
98	0xbc31f7db	-0.010862316
99	0xbbf92819	-0.007603657
100	0x3c3b0ee3	0.0114171235
101	0xbcad8feb	-0.02118679
102	0xbcc91b9e	-0.024549302
103	0x3c9d37a3	0.019191569
104	0xba5bc3ee	-0.0008383383
105	0xbc6265ca	-0.013818214
106	0xb880db6f	-6.144388e-05
107	0xbcb893da	-0.022531439
108	0xbc94b088	-0.018150583
109	0xbc9af3b3	-0.018915033
110	0xbbc2bbb1	-0.0059427847
111	0xbc08c31f	-0.008347302
112	0x3a954809	0.0011389266
113	0x3b477a25	0.0030437794
114	0xbb81b174	-0.0039579216
115	0xbd039904	-0.03212835
116	0xbc9d08ac	-0.019169174
117	0xbca7d6e2	-0.020488206
118	0xbc4e0aa7	-0.012575782
119	0xbd08abd6	-0.033367
120	0xbca6eea8	-0.020377472
121	0xbd138416	-0.03601464
122	0x39be3234	0.00036277028
123	0x3bb6973d	0.005572228
124	0xbc4c66cd	-0.0124756815
125	0xbcf7eddc	-0.030264787
126	0xbc5c6574	-0.013451923
127	0xbd0c48d6	-0.03424915

classifier.0.weight f4 [256, 513]
0	0x3b7ca9f4	0.0038553448
1	0x3c3e94ec	0.011632185
2	0x3d31567d	0.043295372
3	0x3c94b6c2	0.018153552
4	0x3cb32d6e	0.021872249
5	0xbd02ef2b	-0.03196637
6	0xbb885302	-0.004160286
7	0x3c2587ed	0.010103208
8	0xba9378ec	-0.0011251247
9	0xbc1bc244	-0.009506766
10	0xbcb2b8f4	-0.021816708
11	0x3bd06862	0.0063600997
12	0xbd2829c2	-0.04105545
13	0xbcf32651	-0.029681357
14	0xbcd25d24	-0.025679179
15	0x3cc0a18c	0.023514532
16	0xbd02cd0e	-0.031933837
17	0xbcf0850e	-0.02936032
18	0xbd13c207	-0.03607371
19	0x3c84ee5d	0.016226942
20	0xbd172fce	-0.036910824
21	0x3cc3eee9	0.023917632
22	0xbc8d07ba	-0.017215598
23	0xbce0ce62	-0.027442161
24	0xbc47df87	-0.012199289
25	0xbd127e3f	-0.03576493
26	0x3ceb2141	0.02870238
27	0xbcfe93fc	-0.031076424
28	0x3c2637bc	0.010145124
29	0xbc953b05	-0.01821662
30	0x3cda6746	0.026660573
31	0xbc3e33b5	-0.011609008
32	0xbcefea4b	-0.029286524
33	0xbd241ebd	-0.040068377
34	0x3ba1e147	0.004940185
35	0x3c43feee	0.011962635
36	0x3d0eedb1	0.03489465
37	0x3b1ead3f	0.002421215
38	0x3d1d21b9	0.03836224
39	0xbcd0cbdd	-0.025487835
40	0x3c408baf	0.011752053
41	0xbcd75d79	-0.026289688
42	0xbcdba0f7	-0.026810152
43	0x3d3e8002	0.046508797
44	0x3c8b5de4	0.017012544
45	0xbd0c8c8e	-0.03431373
46	0xbd1eeeb5	-0.038801868
47	0xbd252ecb	-0.04032783
48	0xbd21e1da	-0.03952203
49	0xbd0e6655	-0.03476556
50	0xbcebddf6	-0.028792363
51	0xbca1d6c4	-0.019755729
52	0x3d10a07d	0.035309304
53	0x3bffb629	0.0078036976
54	0xbc2fe02a	-0.010734597
55	0x3c84b1f9	0.016198145
56	0xbb893eec	-0.004188409
57	0xbc7f07b0	-0.015565798
58	0x3cfdd6fc	0.030986302
59	0x3c903da4	0.017607518
60	0x3cb147c9	0.021640675
61	0x3d15ed1a	0.03660307
62	0x3c672a0c	0.014109146
63	0x3c02c805	0.007982259
64	0x3ca803c1	0.020509603
65	0xbccbec1d	-0.024892861
66	0x3c7036ac	0.014661472
67	0x3d13037a	0.035891987
68	0xbd169ba2	-0.036769517
69	0x3cf05774	0.029338576
70	0x3d2bbb6a	0.04192678
71	0x3c3b27e7	0.011423088
72	0x3c736112	0.014854686
73	0x3d0307ca	0.03198985
74	0x3cae03ae	0.021241989
75	0xbcbd2d42	-0.02309287
76	0xbce99776	-0.028514605
77	0xbbc3a26a	-0.005970289
78	0x3d1c4741	0.03815389
79	0xba773da3	-0.0009431487
80	0xbc82d67a	-0.015971411
81	0x3d1cd905	0.038292903
82	0xba21e8c8	-0.00061763497
83	0xbb8791c1	-0.0041372483
84	0xbc759f91	-0.014991657
85	0xbc80d3a5	-0.01572592
86	0x3b118abb	0.0022207934
87	0xbce2bb08	-0.027677074
88	0xbd03c95b	-0.03217445
89	0x3d42b2e8	0.0475339
90	0x3cc97f0e	0.024596717
91	0x3c0ef7db	0.008726086
92	0xbd287571	-0.041127626
93	0xbc81d004	-0.01584626
94	0xbc9cc938	-0.019138917
95	0xba5e748d	-0.00084859953
96	0x3d28afaf	0.04118317
97	0xbd31c7db	-0.043403488
98	0x3af08df7	0.0018352856
99	0x3c6d7395	0.014492889
100	0xbc947ec7	-0.018126858
101	0x3c6bc9fc	0.014391419
102	0x3c1afbf9	0.009459489
103	0xb9cd980b	-0.00039213928
104	0x3d1df772	0.03856606
105	0x3caee91e	0.021351393
106	0xbcebf99b	-0.028805545
107	0x3d228d5d	0.039685596
108	0x3d00d510	0.031453192
109	0x3caac871	0.020847531
110	0xbd010ea3	-0.0315081
111	0xbbc5916d	-0.006029299
112	0x3bb3c30b	0.0054858974
113	0x3d3363f5	0.0437965
114	0x3d37770c	0.044791266
115	0x3ca56628	0.020190313
116	0x3cfc12ce	0.030770686
117	0xbcbfe3fe	-0.023424145
118	0xbc0f1836	-0.0087338
119	0x3d2aa313	0.041659426
120	0x3c2c6176	0.010521283
121	0x3d2797cf	0.04091626
122	0x3d0bd6d5	0.034140427
123	0x3c922210	0.017838508
124	0xbce6d7a8	-0.028179005
125	0xbd18e1ec	-0.03732483
126	0xbcfa9c20	-0.030592024
127	0xbc245ced	-0.010031921
128	0x3c72abe1	0.014811487
129	0x3c350023	0.011047396
130	0x3cfdb3a5	0.03096945
131	0xbcf947c5	-0.03042973
132	0xbcecda07	-0.028912557
133	0x3d003b5e	0.031306617
134	0x3c20c4ea	0.009812573
135	0x3c5c27f2	0.013437258
136	0xbc8e586f	-0.017376153
137	0x3c0b6072	0.008506881
138	0xbb7ed4e9	-0.0038884229
139	0x3cbc1470	0.022958964
140	0x3d1a77f1	0.03771204
141	0xbce12ebb	-0.027488103
142	0xbce6f5bc	-0.028193347
143	0xbc28c8f9	-0.010301822
144	0x3cfa6569	0.030565934
145	0xbce4f09e	-0.027946766
146	0x3cee85a9	0.029116469
147	0xbd2a079c	-0.041511163
148	0xbd17c205	-0.037050266
149	0xbb952eed	-0.004552713
150	0x3cc9c2cb	0.024629017
151	0x3ce34cfc	0.02774667
152	0xbccb37f4	-0.024806954
153	0x3d405422	0.046955235
154	0x3c8a5c83	0.016889816
155	0x3bdbda6a	0.0067093866
156	0x3d34a669	0.044104014
157	0xbcd3bf70	-0.02584812
158	0xbcbcd907	-0.023052705
159	0x3acc60dc	0.0015592831
160	0x3cad98cb	0.021191021
161	0x3c6ffb3b	0.0146473
162	0xbd2808aa	-0.041023888
163	0x3b8672ec	0.004103055
164	0xbd2b46c6	-0.04181554
165	0xbc3770e9	-0.0111963535
166	0x3ba1a4f6	0.004932995
167	0xbbf1910f	-0.0073720287
168	0x3c807270	0.015679568
169	0x3cd20269	0.025635915
170	0x3ce1f277	0.027581437
171	0x3ccdcc28	0.025121763
172	0xbd110e28	-0.03541389
173	0x3c8d0bd3	0.017217552
174	0x3cd371dd	0.02581113
175	0x3c28de34	0.010306884
176	0x3cdacc92	0.026708875
177	0xbc3966ef	-0.011316045
178	0x3d03f3d9	0.032214973
179	0xbd2ca619	-0.04215059
180	0x3cbec044	0.023285039
181	0x3cb4509a	0.02201109
182	0x3d0d27af	0.034461673
183	0x3c95e900	0.01829958
184	0xbc8fb14f	-0.017540602
185	0x3c168f3d	0.009189424
186	0x3b8832f1	0.0041564633
187	0x3cc77161	0.024346055
188	0x399f3a0c	0.00030370092
189	0xbc4ce2c9	-0.012505242
190	0x3c42a73f	0.011880695
191	0xbd28d356	-0.04121717
192	0xbd1b525f	-0.037920352
193	0x3d1461c6	0.036226057
194	0xbc87da45	-0.016583571
195	0x3c159f53	0.009132224
196	0xbc61d431	-0.0137835005
197	0x38b74ffc	8.741018e-05
198	0x3ca78517	0.020449204
199	0x3d205227	0.039140847
200	0xbb0fdf03	-0.0021952994
201	0xbc3ee98b	-0.011652361
202	0x3d2cbe4d	0.042173672
203	0xbd121cca	-0.035671987
204	0xbce01cb0	-0.02735743
205	0x3c8187ba	0.01581179
206	0x3c3bcbc3	0.011462155
207	0xbbf82c8a	-0.007573669
208	0xbc4e251e	-0.012582092
209	0x3cc0b442	0.023523454
210	0xbd03b373	-0.032153558
211	0x3d12e896	0.035866342
212	0x3ad5407b	0.0016269827
213	0x3bfe16d1	0.007754185
214	0x3c9236b1	0.017848345
215	0xbc0093b1	-0.007847712
216	0x3d079cb9	0.033108447
217	0x3b8a5659	0.004221719
218	0x3d1fb229	0.038988266
219	0x3cf8c762	0.03036851
220	0x3ca9b4ef	0.020716159
221	0xbd0966a4	-0.03354515
222	0x3d26d831	0.04073352
223	0xbcae103e	-0.02124798
224	0x3d074e9e	0.03303396
225	0xbb7a8532	-0.0038226363
226	0xbb1fccce	-0.0024383548
227	0xbd2c02ee	-0.04199498
228	0x3cc98184	0.02459789
229	0xbca4d7b6	-0.02012239
230	0x3b6dc13c	0.0036278507
231	0xbc71729a	-0.014736796
232	0x3cc7090a	0.024296302
233	0xbcf7df20	-0.030257761
234	0xbc252d87	-0.010081655
235	0xbca9426a	-0.020661552
236	0xbd2f9121	-0.042863015
237	0xba0804aa	-0.0005188683
238	0xbb44ec00	-0.0030047894
239	0x3ce0a193	0.027420795
240	0x3c1e3732	0.009656714
241	0x3d05d26e	0.032671385
242	0xbb66c543	-0.0035212792
243	0xbd15cdaf	-0.03657311
244	0x3ce9693f	0.028492568
245	0xbc8d3b4b	-0.017240187
246	0xbd1dee08	-0.038557082
247	0xbbfc4054	-0.007698098
248	0xbd301569	-0.04298917
249	0xbc9b537f	-0.018960712
250	0xbb9ec6e0	-0.004845485
251	0x3c930c46	0.017950188
252	0x3c2458a8	0.010030903
253	0x3d2db1de	0.042405955
254	0xbcd83e0a	-0.02639677
255	0x3d106953	0.035256695
